{"format": "graph-model", "generatedBy": "2.15.0", "convertedBy": "TensorFlow.js Converter v4.17.0", "signature": {"inputs": {"input": {"name": "input:0", "dtype": "DT_INT64", "tensorShape": {"dim": [{"size": "64"}, {"size": "256"}]}}}, "outputs": {"output": {"name": "Identity:0", "dtype": "DT_FLOAT", "tensorShape": {"dim": [{"size": "64"}, {"size": "1"}, {"size": "65"}]}}}}, "modelTopology": {"node": [{"name": "unknown_37", "op": "Const", "attr": {"value": {"tensor": {"dtype": "DT_FLOAT", "tensorShape": {"dim": [{"size": "384"}]}}}, "dtype": {"type": "DT_FLOAT"}}}, {"name": "StatefulPartitionedCall/onnx_tf_prefix_/h.5/mlp/gelu/Constant_2", "op": "Const", "attr": {"value": {"tensor": {"dtype": "DT_FLOAT", "tensorShape": {}}}, "dtype": {"type": "DT_FLOAT"}}}, {"name": "unknown_34", "op": "Const", "attr": {"value": {"tensor": {"dtype": "DT_FLOAT", "tensorShape": {"dim": [{"size": "384"}]}}}, "dtype": {"type": "DT_FLOAT"}}}, {"name": "StatefulPartitionedCall/onnx_tf_prefix_/h.5/attn/Constant_2", "op": "Const", "attr": {"value": {"tensor": {"dtype": "DT_INT64", "tensorShape": {"dim": [{"size": "4"}]}}}, "dtype": {"type": "DT_INT64"}}}, {"name": "StatefulPartitionedCall/Where_21", "op": "Const", "attr": {"value": {"tensor": {"dtype": "DT_INT64", "tensorShape": {"dim": [{}, {"size": "1"}]}}}, "dtype": {"type": "DT_INT64"}}}, {"name": "StatefulPartitionedCall/Cast_53", "op": "Const", "attr": {"value": {"tensor": {"dtype": "DT_INT64", "tensorShape": {"dim": [{"size": "1"}]}}}, "dtype": {"type": "DT_INT64"}}}, {"name": "StatefulPartitionedCall/GatherV2_21", "op": "Const", "attr": {"value": {"tensor": {"dtype": "DT_INT64", "tensorShape": {"dim": [{}]}}}, "dtype": {"type": "DT_INT64"}}}, {"name": "StatefulPartitionedCall/zeros_36", "op": "Const", "attr": {"value": {"tensor": {"dtype": "DT_INT64", "tensorShape": {}}}, "dtype": {"type": "DT_INT64"}}}, {"name": "StatefulPartitionedCall/onnx_tf_prefix_/h.5/attn/Transpose_1/perm", "op": "Const", "attr": {"value": {"tensor": {"dtype": "DT_INT32", "tensorShape": {"dim": [{"size": "4"}]}}}, "dtype": {"type": "DT_INT32"}}}, {"name": "StatefulPartitionedCall/onnx_tf_prefix_/h.5/attn/Constant_1", "op": "Const", "attr": {"value": {"tensor": {"dtype": "DT_INT64", "tensorShape": {"dim": [{"size": "4"}]}}}, "dtype": {"type": "DT_INT64"}}}, {"name": "StatefulPartitionedCall/Where_20", "op": "Const", "attr": {"value": {"tensor": {"dtype": "DT_INT64", "tensorShape": {"dim": [{}, {"size": "1"}]}}}, "dtype": {"type": "DT_INT64"}}}, {"name": "StatefulPartitionedCall/Cast_52", "op": "Const", "attr": {"value": {"tensor": {"dtype": "DT_INT64", "tensorShape": {"dim": [{"size": "1"}]}}}, "dtype": {"type": "DT_INT64"}}}, {"name": "StatefulPartitionedCall/GatherV2_20", "op": "Const", "attr": {"value": {"tensor": {"dtype": "DT_INT64", "tensorShape": {"dim": [{}]}}}, "dtype": {"type": "DT_INT64"}}}, {"name": "StatefulPartitionedCall/zeros_35", "op": "Const", "attr": {"value": {"tensor": {"dtype": "DT_INT64", "tensorShape": {}}}, "dtype": {"type": "DT_INT64"}}}, {"name": "StatefulPartitionedCall/onnx_tf_prefix_/h.5/attn/Transpose_3/perm", "op": "Const", "attr": {"value": {"tensor": {"dtype": "DT_INT32", "tensorShape": {"dim": [{"size": "4"}]}}}, "dtype": {"type": "DT_INT32"}}}, {"name": "StatefulPartitionedCall/onnx_tf_prefix_/h.5/attn/Shape", "op": "Const", "attr": {"value": {"tensor": {"dtype": "DT_INT64", "tensorShape": {"dim": [{"size": "4"}]}}}, "dtype": {"type": "DT_INT64"}}}, {"name": "StatefulPartitionedCall/SelectV2_61", "op": "Const", "attr": {"value": {"tensor": {"dtype": "DT_INT64", "tensorShape": {"dim": [{"size": "1"}]}}}, "dtype": {"type": "DT_INT64"}}}, {"name": "StatefulPartitionedCall/zeros_38", "op": "Const", "attr": {"value": {"tensor": {"dtype": "DT_INT64", "tensorShape": {}}}, "dtype": {"type": "DT_INT64"}}}, {"name": "StatefulPartitionedCall/Const_64", "op": "Const", "attr": {"value": {"tensor": {"dtype": "DT_INT64", "tensorShape": {}}}, "dtype": {"type": "DT_INT64"}}}, {"name": "StatefulPartitionedCall/Shape_76", "op": "Const", "attr": {"value": {"tensor": {"dtype": "DT_INT64", "tensorShape": {"dim": [{"size": "1"}]}}}, "dtype": {"type": "DT_INT64"}}}, {"name": "StatefulPartitionedCall/ExpandDims_15", "op": "Const", "attr": {"value": {"tensor": {"dtype": "DT_INT64", "tensorShape": {"dim": [{"size": "1"}, {"size": "1"}]}}}, "dtype": {"type": "DT_INT64"}}}, {"name": "StatefulPartitionedCall/Cast_56", "op": "Const", "attr": {"value": {"tensor": {"dtype": "DT_INT64", "tensorShape": {"dim": [{"size": "1"}]}}}, "dtype": {"type": "DT_INT64"}}}, {"name": "StatefulPartitionedCall/SelectV2_62", "op": "Const", "attr": {"value": {"tensor": {"dtype": "DT_INT64", "tensorShape": {"dim": [{"size": "1"}]}}}, "dtype": {"type": "DT_INT64"}}}, {"name": "StatefulPartitionedCall/Const_63", "op": "Const", "attr": {"value": {"tensor": {"dtype": "DT_INT64", "tensorShape": {}}}, "dtype": {"type": "DT_INT64"}}}, {"name": "StatefulPartitionedCall/ones_20", "op": "Const", "attr": {"value": {"tensor": {"dtype": "DT_INT64", "tensorShape": {"dim": [{"size": "1"}]}}}, "dtype": {"type": "DT_INT64"}}}, {"name": "Func/StatefulPartitionedCall/cond_5/then/_108/input/_213", "op": "Const", "attr": {"value": {"tensor": {"dtype": "DT_INT64", "tensorShape": {}}}, "dtype": {"type": "DT_INT64"}}}, {"name": "Func/StatefulPartitionedCall/cond_5/then/_108/input/_214", "op": "Const", "attr": {"value": {"tensor": {"dtype": "DT_INT64", "tensorShape": {}}}, "dtype": {"type": "DT_INT64"}}}, {"name": "StatefulPartitionedCall/onnx_tf_prefix_/h.5/attn/Constant_9", "op": "Const", "attr": {"value": {"tensor": {"dtype": "DT_FLOAT", "tensorShape": {"dim": [{"size": "1"}]}}}, "dtype": {"type": "DT_FLOAT"}}}, {"name": "StatefulPartitionedCall/onnx_tf_prefix_/h.5/attn/Shape_1", "op": "Const", "attr": {"value": {"tensor": {"dtype": "DT_INT64", "tensorShape": {"dim": [{"size": "4"}]}}}, "dtype": {"type": "DT_INT64"}}}, {"name": "StatefulPartitionedCall/SelectV2_65", "op": "Const", "attr": {"value": {"tensor": {"dtype": "DT_INT64", "tensorShape": {"dim": [{"size": "1"}]}}}, "dtype": {"type": "DT_INT64"}}}, {"name": "StatefulPartitionedCall/zeros_39", "op": "Const", "attr": {"value": {"tensor": {"dtype": "DT_INT64", "tensorShape": {}}}, "dtype": {"type": "DT_INT64"}}}, {"name": "StatefulPartitionedCall/Const_66", "op": "Const", "attr": {"value": {"tensor": {"dtype": "DT_INT64", "tensorShape": {}}}, "dtype": {"type": "DT_INT64"}}}, {"name": "StatefulPartitionedCall/Shape_78", "op": "Const", "attr": {"value": {"tensor": {"dtype": "DT_INT64", "tensorShape": {"dim": [{"size": "1"}]}}}, "dtype": {"type": "DT_INT64"}}}, {"name": "StatefulPartitionedCall/ExpandDims_16", "op": "Const", "attr": {"value": {"tensor": {"dtype": "DT_INT64", "tensorShape": {"dim": [{"size": "1"}, {"size": "1"}]}}}, "dtype": {"type": "DT_INT64"}}}, {"name": "StatefulPartitionedCall/Cast_58", "op": "Const", "attr": {"value": {"tensor": {"dtype": "DT_INT64", "tensorShape": {"dim": [{"size": "1"}]}}}, "dtype": {"type": "DT_INT64"}}}, {"name": "StatefulPartitionedCall/SelectV2_66", "op": "Const", "attr": {"value": {"tensor": {"dtype": "DT_INT64", "tensorShape": {"dim": [{"size": "1"}]}}}, "dtype": {"type": "DT_INT64"}}}, {"name": "StatefulPartitionedCall/Const_65", "op": "Const", "attr": {"value": {"tensor": {"dtype": "DT_INT64", "tensorShape": {}}}, "dtype": {"type": "DT_INT64"}}}, {"name": "StatefulPartitionedCall/ones_21", "op": "Const", "attr": {"value": {"tensor": {"dtype": "DT_INT64", "tensorShape": {"dim": [{"size": "1"}]}}}, "dtype": {"type": "DT_INT64"}}}, {"name": "StatefulPartitionedCall/onnx_tf_prefix_/h.5/attn/Shape_2", "op": "Const", "attr": {"value": {"tensor": {"dtype": "DT_INT64", "tensorShape": {"dim": [{"size": "4"}]}}}, "dtype": {"type": "DT_INT64"}}}, {"name": "StatefulPartitionedCall/SelectV2_69", "op": "Const", "attr": {"value": {"tensor": {"dtype": "DT_INT64", "tensorShape": {"dim": [{"size": "1"}]}}}, "dtype": {"type": "DT_INT64"}}}, {"name": "StatefulPartitionedCall/zeros_40", "op": "Const", "attr": {"value": {"tensor": {"dtype": "DT_INT64", "tensorShape": {}}}, "dtype": {"type": "DT_INT64"}}}, {"name": "StatefulPartitionedCall/Const_68", "op": "Const", "attr": {"value": {"tensor": {"dtype": "DT_INT64", "tensorShape": {}}}, "dtype": {"type": "DT_INT64"}}}, {"name": "StatefulPartitionedCall/Shape_80", "op": "Const", "attr": {"value": {"tensor": {"dtype": "DT_INT64", "tensorShape": {"dim": [{"size": "1"}]}}}, "dtype": {"type": "DT_INT64"}}}, {"name": "StatefulPartitionedCall/ExpandDims_17", "op": "Const", "attr": {"value": {"tensor": {"dtype": "DT_INT64", "tensorShape": {"dim": [{"size": "1"}, {"size": "1"}]}}}, "dtype": {"type": "DT_INT64"}}}, {"name": "StatefulPartitionedCall/Cast_60", "op": "Const", "attr": {"value": {"tensor": {"dtype": "DT_INT64", "tensorShape": {"dim": [{"size": "1"}]}}}, "dtype": {"type": "DT_INT64"}}}, {"name": "StatefulPartitionedCall/SelectV2_70", "op": "Const", "attr": {"value": {"tensor": {"dtype": "DT_INT64", "tensorShape": {"dim": [{"size": "1"}]}}}, "dtype": {"type": "DT_INT64"}}}, {"name": "StatefulPartitionedCall/Const_67", "op": "Const", "attr": {"value": {"tensor": {"dtype": "DT_INT64", "tensorShape": {}}}, "dtype": {"type": "DT_INT64"}}}, {"name": "StatefulPartitionedCall/ones_22", "op": "Const", "attr": {"value": {"tensor": {"dtype": "DT_INT64", "tensorShape": {"dim": [{"size": "1"}]}}}, "dtype": {"type": "DT_INT64"}}}, {"name": "StatefulPartitionedCall/onnx_tf_prefix_/h.5/attn/Concat/axis", "op": "Const", "attr": {"value": {"tensor": {"dtype": "DT_INT32", "tensorShape": {}}}, "dtype": {"type": "DT_INT32"}}}, {"name": "StatefulPartitionedCall/ones_23/Const", "op": "Const", "attr": {"value": {"tensor": {"dtype": "DT_FLOAT", "tensorShape": {}}}, "dtype": {"type": "DT_FLOAT"}}}, {"name": "StatefulPartitionedCall/Const_69", "op": "Const", "attr": {"value": {"tensor": {"dtype": "DT_INT64", "tensorShape": {}}}, "dtype": {"type": "DT_INT64"}}}, {"name": "StatefulPartitionedCall/Const_70", "op": "Const", "attr": {"value": {"tensor": {"dtype": "DT_INT64", "tensorShape": {}}}, "dtype": {"type": "DT_INT64"}}}, {"name": "StatefulPartitionedCall/GreaterEqual_6", "op": "Const", "attr": {"value": {"tensor": {"dtype": "DT_BOOL", "tensorShape": {}}}, "dtype": {"type": "DT_BOOL"}}}, {"name": "StatefulPartitionedCall/onnx_tf_prefix_/h.5/attn/Constant_12", "op": "Const", "attr": {"value": {"tensor": {"dtype": "DT_FLOAT", "tensorShape": {"dim": [{"size": "1"}]}}}, "dtype": {"type": "DT_FLOAT"}}}, {"name": "StatefulPartitionedCall/onnx_tf_prefix_/h.5/attn/Constant_11", "op": "Const", "attr": {"value": {"tensor": {"dtype": "DT_FLOAT", "tensorShape": {"dim": [{"size": "1"}]}}}, "dtype": {"type": "DT_FLOAT"}}}, {"name": "StatefulPartitionedCall/onnx_tf_prefix_/h.5/attn/Constant_10", "op": "Const", "attr": {"value": {"tensor": {"dtype": "DT_FLOAT", "tensorShape": {"dim": [{"size": "1"}]}}}, "dtype": {"type": "DT_FLOAT"}}}, {"name": "unknown_31", "op": "Const", "attr": {"value": {"tensor": {"dtype": "DT_FLOAT", "tensorShape": {"dim": [{"size": "384"}]}}}, "dtype": {"type": "DT_FLOAT"}}}, {"name": "StatefulPartitionedCall/onnx_tf_prefix_/h.4/mlp/gelu/Constant_2", "op": "Const", "attr": {"value": {"tensor": {"dtype": "DT_FLOAT", "tensorShape": {}}}, "dtype": {"type": "DT_FLOAT"}}}, {"name": "unknown_28", "op": "Const", "attr": {"value": {"tensor": {"dtype": "DT_FLOAT", "tensorShape": {"dim": [{"size": "384"}]}}}, "dtype": {"type": "DT_FLOAT"}}}, {"name": "StatefulPartitionedCall/onnx_tf_prefix_/h.4/attn/Constant_2", "op": "Const", "attr": {"value": {"tensor": {"dtype": "DT_INT64", "tensorShape": {"dim": [{"size": "4"}]}}}, "dtype": {"type": "DT_INT64"}}}, {"name": "StatefulPartitionedCall/Where_17", "op": "Const", "attr": {"value": {"tensor": {"dtype": "DT_INT64", "tensorShape": {"dim": [{}, {"size": "1"}]}}}, "dtype": {"type": "DT_INT64"}}}, {"name": "StatefulPartitionedCall/Cast_43", "op": "Const", "attr": {"value": {"tensor": {"dtype": "DT_INT64", "tensorShape": {"dim": [{"size": "1"}]}}}, "dtype": {"type": "DT_INT64"}}}, {"name": "StatefulPartitionedCall/GatherV2_17", "op": "Const", "attr": {"value": {"tensor": {"dtype": "DT_INT64", "tensorShape": {"dim": [{}]}}}, "dtype": {"type": "DT_INT64"}}}, {"name": "StatefulPartitionedCall/zeros_29", "op": "Const", "attr": {"value": {"tensor": {"dtype": "DT_INT64", "tensorShape": {}}}, "dtype": {"type": "DT_INT64"}}}, {"name": "StatefulPartitionedCall/onnx_tf_prefix_/h.4/attn/Transpose_1/perm", "op": "Const", "attr": {"value": {"tensor": {"dtype": "DT_INT32", "tensorShape": {"dim": [{"size": "4"}]}}}, "dtype": {"type": "DT_INT32"}}}, {"name": "StatefulPartitionedCall/onnx_tf_prefix_/h.4/attn/Constant_1", "op": "Const", "attr": {"value": {"tensor": {"dtype": "DT_INT64", "tensorShape": {"dim": [{"size": "4"}]}}}, "dtype": {"type": "DT_INT64"}}}, {"name": "StatefulPartitionedCall/Where_16", "op": "Const", "attr": {"value": {"tensor": {"dtype": "DT_INT64", "tensorShape": {"dim": [{}, {"size": "1"}]}}}, "dtype": {"type": "DT_INT64"}}}, {"name": "StatefulPartitionedCall/Cast_42", "op": "Const", "attr": {"value": {"tensor": {"dtype": "DT_INT64", "tensorShape": {"dim": [{"size": "1"}]}}}, "dtype": {"type": "DT_INT64"}}}, {"name": "StatefulPartitionedCall/GatherV2_16", "op": "Const", "attr": {"value": {"tensor": {"dtype": "DT_INT64", "tensorShape": {"dim": [{}]}}}, "dtype": {"type": "DT_INT64"}}}, {"name": "StatefulPartitionedCall/zeros_28", "op": "Const", "attr": {"value": {"tensor": {"dtype": "DT_INT64", "tensorShape": {}}}, "dtype": {"type": "DT_INT64"}}}, {"name": "StatefulPartitionedCall/onnx_tf_prefix_/h.4/attn/Transpose_3/perm", "op": "Const", "attr": {"value": {"tensor": {"dtype": "DT_INT32", "tensorShape": {"dim": [{"size": "4"}]}}}, "dtype": {"type": "DT_INT32"}}}, {"name": "StatefulPartitionedCall/onnx_tf_prefix_/h.4/attn/Shape", "op": "Const", "attr": {"value": {"tensor": {"dtype": "DT_INT64", "tensorShape": {"dim": [{"size": "4"}]}}}, "dtype": {"type": "DT_INT64"}}}, {"name": "StatefulPartitionedCall/SelectV2_49", "op": "Const", "attr": {"value": {"tensor": {"dtype": "DT_INT64", "tensorShape": {"dim": [{"size": "1"}]}}}, "dtype": {"type": "DT_INT64"}}}, {"name": "StatefulPartitionedCall/zeros_31", "op": "Const", "attr": {"value": {"tensor": {"dtype": "DT_INT64", "tensorShape": {}}}, "dtype": {"type": "DT_INT64"}}}, {"name": "StatefulPartitionedCall/Const_52", "op": "Const", "attr": {"value": {"tensor": {"dtype": "DT_INT64", "tensorShape": {}}}, "dtype": {"type": "DT_INT64"}}}, {"name": "StatefulPartitionedCall/Shape_62", "op": "Const", "attr": {"value": {"tensor": {"dtype": "DT_INT64", "tensorShape": {"dim": [{"size": "1"}]}}}, "dtype": {"type": "DT_INT64"}}}, {"name": "StatefulPartitionedCall/ExpandDims_12", "op": "Const", "attr": {"value": {"tensor": {"dtype": "DT_INT64", "tensorShape": {"dim": [{"size": "1"}, {"size": "1"}]}}}, "dtype": {"type": "DT_INT64"}}}, {"name": "StatefulPartitionedCall/Cast_46", "op": "Const", "attr": {"value": {"tensor": {"dtype": "DT_INT64", "tensorShape": {"dim": [{"size": "1"}]}}}, "dtype": {"type": "DT_INT64"}}}, {"name": "StatefulPartitionedCall/SelectV2_50", "op": "Const", "attr": {"value": {"tensor": {"dtype": "DT_INT64", "tensorShape": {"dim": [{"size": "1"}]}}}, "dtype": {"type": "DT_INT64"}}}, {"name": "StatefulPartitionedCall/Const_51", "op": "Const", "attr": {"value": {"tensor": {"dtype": "DT_INT64", "tensorShape": {}}}, "dtype": {"type": "DT_INT64"}}}, {"name": "StatefulPartitionedCall/ones_16", "op": "Const", "attr": {"value": {"tensor": {"dtype": "DT_INT64", "tensorShape": {"dim": [{"size": "1"}]}}}, "dtype": {"type": "DT_INT64"}}}, {"name": "Func/StatefulPartitionedCall/cond_4/then/_97/input/_199", "op": "Const", "attr": {"value": {"tensor": {"dtype": "DT_INT64", "tensorShape": {}}}, "dtype": {"type": "DT_INT64"}}}, {"name": "Func/StatefulPartitionedCall/cond_4/then/_97/input/_200", "op": "Const", "attr": {"value": {"tensor": {"dtype": "DT_INT64", "tensorShape": {}}}, "dtype": {"type": "DT_INT64"}}}, {"name": "StatefulPartitionedCall/onnx_tf_prefix_/h.4/attn/Constant_9", "op": "Const", "attr": {"value": {"tensor": {"dtype": "DT_FLOAT", "tensorShape": {"dim": [{"size": "1"}]}}}, "dtype": {"type": "DT_FLOAT"}}}, {"name": "StatefulPartitionedCall/onnx_tf_prefix_/h.4/attn/Shape_1", "op": "Const", "attr": {"value": {"tensor": {"dtype": "DT_INT64", "tensorShape": {"dim": [{"size": "4"}]}}}, "dtype": {"type": "DT_INT64"}}}, {"name": "StatefulPartitionedCall/SelectV2_53", "op": "Const", "attr": {"value": {"tensor": {"dtype": "DT_INT64", "tensorShape": {"dim": [{"size": "1"}]}}}, "dtype": {"type": "DT_INT64"}}}, {"name": "StatefulPartitionedCall/zeros_32", "op": "Const", "attr": {"value": {"tensor": {"dtype": "DT_INT64", "tensorShape": {}}}, "dtype": {"type": "DT_INT64"}}}, {"name": "StatefulPartitionedCall/Const_54", "op": "Const", "attr": {"value": {"tensor": {"dtype": "DT_INT64", "tensorShape": {}}}, "dtype": {"type": "DT_INT64"}}}, {"name": "StatefulPartitionedCall/Shape_64", "op": "Const", "attr": {"value": {"tensor": {"dtype": "DT_INT64", "tensorShape": {"dim": [{"size": "1"}]}}}, "dtype": {"type": "DT_INT64"}}}, {"name": "StatefulPartitionedCall/ExpandDims_13", "op": "Const", "attr": {"value": {"tensor": {"dtype": "DT_INT64", "tensorShape": {"dim": [{"size": "1"}, {"size": "1"}]}}}, "dtype": {"type": "DT_INT64"}}}, {"name": "StatefulPartitionedCall/Cast_48", "op": "Const", "attr": {"value": {"tensor": {"dtype": "DT_INT64", "tensorShape": {"dim": [{"size": "1"}]}}}, "dtype": {"type": "DT_INT64"}}}, {"name": "StatefulPartitionedCall/SelectV2_54", "op": "Const", "attr": {"value": {"tensor": {"dtype": "DT_INT64", "tensorShape": {"dim": [{"size": "1"}]}}}, "dtype": {"type": "DT_INT64"}}}, {"name": "StatefulPartitionedCall/Const_53", "op": "Const", "attr": {"value": {"tensor": {"dtype": "DT_INT64", "tensorShape": {}}}, "dtype": {"type": "DT_INT64"}}}, {"name": "StatefulPartitionedCall/ones_17", "op": "Const", "attr": {"value": {"tensor": {"dtype": "DT_INT64", "tensorShape": {"dim": [{"size": "1"}]}}}, "dtype": {"type": "DT_INT64"}}}, {"name": "StatefulPartitionedCall/onnx_tf_prefix_/h.4/attn/Shape_2", "op": "Const", "attr": {"value": {"tensor": {"dtype": "DT_INT64", "tensorShape": {"dim": [{"size": "4"}]}}}, "dtype": {"type": "DT_INT64"}}}, {"name": "StatefulPartitionedCall/SelectV2_57", "op": "Const", "attr": {"value": {"tensor": {"dtype": "DT_INT64", "tensorShape": {"dim": [{"size": "1"}]}}}, "dtype": {"type": "DT_INT64"}}}, {"name": "StatefulPartitionedCall/zeros_33", "op": "Const", "attr": {"value": {"tensor": {"dtype": "DT_INT64", "tensorShape": {}}}, "dtype": {"type": "DT_INT64"}}}, {"name": "StatefulPartitionedCall/Const_56", "op": "Const", "attr": {"value": {"tensor": {"dtype": "DT_INT64", "tensorShape": {}}}, "dtype": {"type": "DT_INT64"}}}, {"name": "StatefulPartitionedCall/Shape_66", "op": "Const", "attr": {"value": {"tensor": {"dtype": "DT_INT64", "tensorShape": {"dim": [{"size": "1"}]}}}, "dtype": {"type": "DT_INT64"}}}, {"name": "StatefulPartitionedCall/ExpandDims_14", "op": "Const", "attr": {"value": {"tensor": {"dtype": "DT_INT64", "tensorShape": {"dim": [{"size": "1"}, {"size": "1"}]}}}, "dtype": {"type": "DT_INT64"}}}, {"name": "StatefulPartitionedCall/Cast_50", "op": "Const", "attr": {"value": {"tensor": {"dtype": "DT_INT64", "tensorShape": {"dim": [{"size": "1"}]}}}, "dtype": {"type": "DT_INT64"}}}, {"name": "StatefulPartitionedCall/SelectV2_58", "op": "Const", "attr": {"value": {"tensor": {"dtype": "DT_INT64", "tensorShape": {"dim": [{"size": "1"}]}}}, "dtype": {"type": "DT_INT64"}}}, {"name": "StatefulPartitionedCall/Const_55", "op": "Const", "attr": {"value": {"tensor": {"dtype": "DT_INT64", "tensorShape": {}}}, "dtype": {"type": "DT_INT64"}}}, {"name": "StatefulPartitionedCall/ones_18", "op": "Const", "attr": {"value": {"tensor": {"dtype": "DT_INT64", "tensorShape": {"dim": [{"size": "1"}]}}}, "dtype": {"type": "DT_INT64"}}}, {"name": "StatefulPartitionedCall/onnx_tf_prefix_/h.4/attn/Concat/axis", "op": "Const", "attr": {"value": {"tensor": {"dtype": "DT_INT32", "tensorShape": {}}}, "dtype": {"type": "DT_INT32"}}}, {"name": "StatefulPartitionedCall/ones_19/Const", "op": "Const", "attr": {"value": {"tensor": {"dtype": "DT_FLOAT", "tensorShape": {}}}, "dtype": {"type": "DT_FLOAT"}}}, {"name": "StatefulPartitionedCall/Const_57", "op": "Const", "attr": {"value": {"tensor": {"dtype": "DT_INT64", "tensorShape": {}}}, "dtype": {"type": "DT_INT64"}}}, {"name": "StatefulPartitionedCall/Const_58", "op": "Const", "attr": {"value": {"tensor": {"dtype": "DT_INT64", "tensorShape": {}}}, "dtype": {"type": "DT_INT64"}}}, {"name": "StatefulPartitionedCall/GreaterEqual_5", "op": "Const", "attr": {"value": {"tensor": {"dtype": "DT_BOOL", "tensorShape": {}}}, "dtype": {"type": "DT_BOOL"}}}, {"name": "StatefulPartitionedCall/onnx_tf_prefix_/h.4/attn/Constant_12", "op": "Const", "attr": {"value": {"tensor": {"dtype": "DT_FLOAT", "tensorShape": {"dim": [{"size": "1"}]}}}, "dtype": {"type": "DT_FLOAT"}}}, {"name": "StatefulPartitionedCall/onnx_tf_prefix_/h.4/attn/Constant_11", "op": "Const", "attr": {"value": {"tensor": {"dtype": "DT_FLOAT", "tensorShape": {"dim": [{"size": "1"}]}}}, "dtype": {"type": "DT_FLOAT"}}}, {"name": "StatefulPartitionedCall/onnx_tf_prefix_/h.4/attn/Constant_10", "op": "Const", "attr": {"value": {"tensor": {"dtype": "DT_FLOAT", "tensorShape": {"dim": [{"size": "1"}]}}}, "dtype": {"type": "DT_FLOAT"}}}, {"name": "unknown_25", "op": "Const", "attr": {"value": {"tensor": {"dtype": "DT_FLOAT", "tensorShape": {"dim": [{"size": "384"}]}}}, "dtype": {"type": "DT_FLOAT"}}}, {"name": "StatefulPartitionedCall/onnx_tf_prefix_/h.3/mlp/gelu/Constant_2", "op": "Const", "attr": {"value": {"tensor": {"dtype": "DT_FLOAT", "tensorShape": {}}}, "dtype": {"type": "DT_FLOAT"}}}, {"name": "unknown_22", "op": "Const", "attr": {"value": {"tensor": {"dtype": "DT_FLOAT", "tensorShape": {"dim": [{"size": "384"}]}}}, "dtype": {"type": "DT_FLOAT"}}}, {"name": "StatefulPartitionedCall/onnx_tf_prefix_/h.3/attn/Constant_2", "op": "Const", "attr": {"value": {"tensor": {"dtype": "DT_INT64", "tensorShape": {"dim": [{"size": "4"}]}}}, "dtype": {"type": "DT_INT64"}}}, {"name": "StatefulPartitionedCall/Where_13", "op": "Const", "attr": {"value": {"tensor": {"dtype": "DT_INT64", "tensorShape": {"dim": [{}, {"size": "1"}]}}}, "dtype": {"type": "DT_INT64"}}}, {"name": "StatefulPartitionedCall/Cast_33", "op": "Const", "attr": {"value": {"tensor": {"dtype": "DT_INT64", "tensorShape": {"dim": [{"size": "1"}]}}}, "dtype": {"type": "DT_INT64"}}}, {"name": "StatefulPartitionedCall/GatherV2_13", "op": "Const", "attr": {"value": {"tensor": {"dtype": "DT_INT64", "tensorShape": {"dim": [{}]}}}, "dtype": {"type": "DT_INT64"}}}, {"name": "StatefulPartitionedCall/zeros_22", "op": "Const", "attr": {"value": {"tensor": {"dtype": "DT_INT64", "tensorShape": {}}}, "dtype": {"type": "DT_INT64"}}}, {"name": "StatefulPartitionedCall/onnx_tf_prefix_/h.3/attn/Transpose_1/perm", "op": "Const", "attr": {"value": {"tensor": {"dtype": "DT_INT32", "tensorShape": {"dim": [{"size": "4"}]}}}, "dtype": {"type": "DT_INT32"}}}, {"name": "StatefulPartitionedCall/onnx_tf_prefix_/h.3/attn/Constant_1", "op": "Const", "attr": {"value": {"tensor": {"dtype": "DT_INT64", "tensorShape": {"dim": [{"size": "4"}]}}}, "dtype": {"type": "DT_INT64"}}}, {"name": "StatefulPartitionedCall/Where_12", "op": "Const", "attr": {"value": {"tensor": {"dtype": "DT_INT64", "tensorShape": {"dim": [{}, {"size": "1"}]}}}, "dtype": {"type": "DT_INT64"}}}, {"name": "StatefulPartitionedCall/Cast_32", "op": "Const", "attr": {"value": {"tensor": {"dtype": "DT_INT64", "tensorShape": {"dim": [{"size": "1"}]}}}, "dtype": {"type": "DT_INT64"}}}, {"name": "StatefulPartitionedCall/GatherV2_12", "op": "Const", "attr": {"value": {"tensor": {"dtype": "DT_INT64", "tensorShape": {"dim": [{}]}}}, "dtype": {"type": "DT_INT64"}}}, {"name": "StatefulPartitionedCall/zeros_21", "op": "Const", "attr": {"value": {"tensor": {"dtype": "DT_INT64", "tensorShape": {}}}, "dtype": {"type": "DT_INT64"}}}, {"name": "StatefulPartitionedCall/onnx_tf_prefix_/h.3/attn/Transpose_3/perm", "op": "Const", "attr": {"value": {"tensor": {"dtype": "DT_INT32", "tensorShape": {"dim": [{"size": "4"}]}}}, "dtype": {"type": "DT_INT32"}}}, {"name": "StatefulPartitionedCall/onnx_tf_prefix_/h.3/attn/Shape", "op": "Const", "attr": {"value": {"tensor": {"dtype": "DT_INT64", "tensorShape": {"dim": [{"size": "4"}]}}}, "dtype": {"type": "DT_INT64"}}}, {"name": "StatefulPartitionedCall/SelectV2_37", "op": "Const", "attr": {"value": {"tensor": {"dtype": "DT_INT64", "tensorShape": {"dim": [{"size": "1"}]}}}, "dtype": {"type": "DT_INT64"}}}, {"name": "StatefulPartitionedCall/zeros_24", "op": "Const", "attr": {"value": {"tensor": {"dtype": "DT_INT64", "tensorShape": {}}}, "dtype": {"type": "DT_INT64"}}}, {"name": "StatefulPartitionedCall/Const_40", "op": "Const", "attr": {"value": {"tensor": {"dtype": "DT_INT64", "tensorShape": {}}}, "dtype": {"type": "DT_INT64"}}}, {"name": "StatefulPartitionedCall/Shape_48", "op": "Const", "attr": {"value": {"tensor": {"dtype": "DT_INT64", "tensorShape": {"dim": [{"size": "1"}]}}}, "dtype": {"type": "DT_INT64"}}}, {"name": "StatefulPartitionedCall/ExpandDims_9", "op": "Const", "attr": {"value": {"tensor": {"dtype": "DT_INT64", "tensorShape": {"dim": [{"size": "1"}, {"size": "1"}]}}}, "dtype": {"type": "DT_INT64"}}}, {"name": "StatefulPartitionedCall/Cast_36", "op": "Const", "attr": {"value": {"tensor": {"dtype": "DT_INT64", "tensorShape": {"dim": [{"size": "1"}]}}}, "dtype": {"type": "DT_INT64"}}}, {"name": "StatefulPartitionedCall/SelectV2_38", "op": "Const", "attr": {"value": {"tensor": {"dtype": "DT_INT64", "tensorShape": {"dim": [{"size": "1"}]}}}, "dtype": {"type": "DT_INT64"}}}, {"name": "StatefulPartitionedCall/Const_39", "op": "Const", "attr": {"value": {"tensor": {"dtype": "DT_INT64", "tensorShape": {}}}, "dtype": {"type": "DT_INT64"}}}, {"name": "StatefulPartitionedCall/ones_12", "op": "Const", "attr": {"value": {"tensor": {"dtype": "DT_INT64", "tensorShape": {"dim": [{"size": "1"}]}}}, "dtype": {"type": "DT_INT64"}}}, {"name": "Func/StatefulPartitionedCall/cond_3/then/_86/input/_185", "op": "Const", "attr": {"value": {"tensor": {"dtype": "DT_INT64", "tensorShape": {}}}, "dtype": {"type": "DT_INT64"}}}, {"name": "Func/StatefulPartitionedCall/cond_3/then/_86/input/_186", "op": "Const", "attr": {"value": {"tensor": {"dtype": "DT_INT64", "tensorShape": {}}}, "dtype": {"type": "DT_INT64"}}}, {"name": "StatefulPartitionedCall/onnx_tf_prefix_/h.3/attn/Constant_9", "op": "Const", "attr": {"value": {"tensor": {"dtype": "DT_FLOAT", "tensorShape": {"dim": [{"size": "1"}]}}}, "dtype": {"type": "DT_FLOAT"}}}, {"name": "StatefulPartitionedCall/onnx_tf_prefix_/h.3/attn/Shape_1", "op": "Const", "attr": {"value": {"tensor": {"dtype": "DT_INT64", "tensorShape": {"dim": [{"size": "4"}]}}}, "dtype": {"type": "DT_INT64"}}}, {"name": "StatefulPartitionedCall/SelectV2_41", "op": "Const", "attr": {"value": {"tensor": {"dtype": "DT_INT64", "tensorShape": {"dim": [{"size": "1"}]}}}, "dtype": {"type": "DT_INT64"}}}, {"name": "StatefulPartitionedCall/zeros_25", "op": "Const", "attr": {"value": {"tensor": {"dtype": "DT_INT64", "tensorShape": {}}}, "dtype": {"type": "DT_INT64"}}}, {"name": "StatefulPartitionedCall/Const_42", "op": "Const", "attr": {"value": {"tensor": {"dtype": "DT_INT64", "tensorShape": {}}}, "dtype": {"type": "DT_INT64"}}}, {"name": "StatefulPartitionedCall/Shape_50", "op": "Const", "attr": {"value": {"tensor": {"dtype": "DT_INT64", "tensorShape": {"dim": [{"size": "1"}]}}}, "dtype": {"type": "DT_INT64"}}}, {"name": "StatefulPartitionedCall/ExpandDims_10", "op": "Const", "attr": {"value": {"tensor": {"dtype": "DT_INT64", "tensorShape": {"dim": [{"size": "1"}, {"size": "1"}]}}}, "dtype": {"type": "DT_INT64"}}}, {"name": "StatefulPartitionedCall/Cast_38", "op": "Const", "attr": {"value": {"tensor": {"dtype": "DT_INT64", "tensorShape": {"dim": [{"size": "1"}]}}}, "dtype": {"type": "DT_INT64"}}}, {"name": "StatefulPartitionedCall/SelectV2_42", "op": "Const", "attr": {"value": {"tensor": {"dtype": "DT_INT64", "tensorShape": {"dim": [{"size": "1"}]}}}, "dtype": {"type": "DT_INT64"}}}, {"name": "StatefulPartitionedCall/Const_41", "op": "Const", "attr": {"value": {"tensor": {"dtype": "DT_INT64", "tensorShape": {}}}, "dtype": {"type": "DT_INT64"}}}, {"name": "StatefulPartitionedCall/ones_13", "op": "Const", "attr": {"value": {"tensor": {"dtype": "DT_INT64", "tensorShape": {"dim": [{"size": "1"}]}}}, "dtype": {"type": "DT_INT64"}}}, {"name": "StatefulPartitionedCall/onnx_tf_prefix_/h.3/attn/Shape_2", "op": "Const", "attr": {"value": {"tensor": {"dtype": "DT_INT64", "tensorShape": {"dim": [{"size": "4"}]}}}, "dtype": {"type": "DT_INT64"}}}, {"name": "StatefulPartitionedCall/SelectV2_45", "op": "Const", "attr": {"value": {"tensor": {"dtype": "DT_INT64", "tensorShape": {"dim": [{"size": "1"}]}}}, "dtype": {"type": "DT_INT64"}}}, {"name": "StatefulPartitionedCall/zeros_26", "op": "Const", "attr": {"value": {"tensor": {"dtype": "DT_INT64", "tensorShape": {}}}, "dtype": {"type": "DT_INT64"}}}, {"name": "StatefulPartitionedCall/Const_44", "op": "Const", "attr": {"value": {"tensor": {"dtype": "DT_INT64", "tensorShape": {}}}, "dtype": {"type": "DT_INT64"}}}, {"name": "StatefulPartitionedCall/Shape_52", "op": "Const", "attr": {"value": {"tensor": {"dtype": "DT_INT64", "tensorShape": {"dim": [{"size": "1"}]}}}, "dtype": {"type": "DT_INT64"}}}, {"name": "StatefulPartitionedCall/ExpandDims_11", "op": "Const", "attr": {"value": {"tensor": {"dtype": "DT_INT64", "tensorShape": {"dim": [{"size": "1"}, {"size": "1"}]}}}, "dtype": {"type": "DT_INT64"}}}, {"name": "StatefulPartitionedCall/Cast_40", "op": "Const", "attr": {"value": {"tensor": {"dtype": "DT_INT64", "tensorShape": {"dim": [{"size": "1"}]}}}, "dtype": {"type": "DT_INT64"}}}, {"name": "StatefulPartitionedCall/SelectV2_46", "op": "Const", "attr": {"value": {"tensor": {"dtype": "DT_INT64", "tensorShape": {"dim": [{"size": "1"}]}}}, "dtype": {"type": "DT_INT64"}}}, {"name": "StatefulPartitionedCall/Const_43", "op": "Const", "attr": {"value": {"tensor": {"dtype": "DT_INT64", "tensorShape": {}}}, "dtype": {"type": "DT_INT64"}}}, {"name": "StatefulPartitionedCall/ones_14", "op": "Const", "attr": {"value": {"tensor": {"dtype": "DT_INT64", "tensorShape": {"dim": [{"size": "1"}]}}}, "dtype": {"type": "DT_INT64"}}}, {"name": "StatefulPartitionedCall/onnx_tf_prefix_/h.3/attn/Concat/axis", "op": "Const", "attr": {"value": {"tensor": {"dtype": "DT_INT32", "tensorShape": {}}}, "dtype": {"type": "DT_INT32"}}}, {"name": "StatefulPartitionedCall/ones_15/Const", "op": "Const", "attr": {"value": {"tensor": {"dtype": "DT_FLOAT", "tensorShape": {}}}, "dtype": {"type": "DT_FLOAT"}}}, {"name": "StatefulPartitionedCall/Const_45", "op": "Const", "attr": {"value": {"tensor": {"dtype": "DT_INT64", "tensorShape": {}}}, "dtype": {"type": "DT_INT64"}}}, {"name": "StatefulPartitionedCall/Const_46", "op": "Const", "attr": {"value": {"tensor": {"dtype": "DT_INT64", "tensorShape": {}}}, "dtype": {"type": "DT_INT64"}}}, {"name": "StatefulPartitionedCall/GreaterEqual_4", "op": "Const", "attr": {"value": {"tensor": {"dtype": "DT_BOOL", "tensorShape": {}}}, "dtype": {"type": "DT_BOOL"}}}, {"name": "StatefulPartitionedCall/onnx_tf_prefix_/h.3/attn/Constant_12", "op": "Const", "attr": {"value": {"tensor": {"dtype": "DT_FLOAT", "tensorShape": {"dim": [{"size": "1"}]}}}, "dtype": {"type": "DT_FLOAT"}}}, {"name": "StatefulPartitionedCall/onnx_tf_prefix_/h.3/attn/Constant_11", "op": "Const", "attr": {"value": {"tensor": {"dtype": "DT_FLOAT", "tensorShape": {"dim": [{"size": "1"}]}}}, "dtype": {"type": "DT_FLOAT"}}}, {"name": "StatefulPartitionedCall/onnx_tf_prefix_/h.3/attn/Constant_10", "op": "Const", "attr": {"value": {"tensor": {"dtype": "DT_FLOAT", "tensorShape": {"dim": [{"size": "1"}]}}}, "dtype": {"type": "DT_FLOAT"}}}, {"name": "unknown_19", "op": "Const", "attr": {"value": {"tensor": {"dtype": "DT_FLOAT", "tensorShape": {"dim": [{"size": "384"}]}}}, "dtype": {"type": "DT_FLOAT"}}}, {"name": "StatefulPartitionedCall/onnx_tf_prefix_/h.2/mlp/gelu/Constant_2", "op": "Const", "attr": {"value": {"tensor": {"dtype": "DT_FLOAT", "tensorShape": {}}}, "dtype": {"type": "DT_FLOAT"}}}, {"name": "unknown_16", "op": "Const", "attr": {"value": {"tensor": {"dtype": "DT_FLOAT", "tensorShape": {"dim": [{"size": "384"}]}}}, "dtype": {"type": "DT_FLOAT"}}}, {"name": "StatefulPartitionedCall/onnx_tf_prefix_/h.2/attn/Constant_2", "op": "Const", "attr": {"value": {"tensor": {"dtype": "DT_INT64", "tensorShape": {"dim": [{"size": "4"}]}}}, "dtype": {"type": "DT_INT64"}}}, {"name": "StatefulPartitionedCall/Where_9", "op": "Const", "attr": {"value": {"tensor": {"dtype": "DT_INT64", "tensorShape": {"dim": [{}, {"size": "1"}]}}}, "dtype": {"type": "DT_INT64"}}}, {"name": "StatefulPartitionedCall/Cast_23", "op": "Const", "attr": {"value": {"tensor": {"dtype": "DT_INT64", "tensorShape": {"dim": [{"size": "1"}]}}}, "dtype": {"type": "DT_INT64"}}}, {"name": "StatefulPartitionedCall/GatherV2_9", "op": "Const", "attr": {"value": {"tensor": {"dtype": "DT_INT64", "tensorShape": {"dim": [{}]}}}, "dtype": {"type": "DT_INT64"}}}, {"name": "StatefulPartitionedCall/zeros_15", "op": "Const", "attr": {"value": {"tensor": {"dtype": "DT_INT64", "tensorShape": {}}}, "dtype": {"type": "DT_INT64"}}}, {"name": "StatefulPartitionedCall/onnx_tf_prefix_/h.2/attn/Transpose_1/perm", "op": "Const", "attr": {"value": {"tensor": {"dtype": "DT_INT32", "tensorShape": {"dim": [{"size": "4"}]}}}, "dtype": {"type": "DT_INT32"}}}, {"name": "StatefulPartitionedCall/onnx_tf_prefix_/h.2/attn/Constant_1", "op": "Const", "attr": {"value": {"tensor": {"dtype": "DT_INT64", "tensorShape": {"dim": [{"size": "4"}]}}}, "dtype": {"type": "DT_INT64"}}}, {"name": "StatefulPartitionedCall/Where_8", "op": "Const", "attr": {"value": {"tensor": {"dtype": "DT_INT64", "tensorShape": {"dim": [{}, {"size": "1"}]}}}, "dtype": {"type": "DT_INT64"}}}, {"name": "StatefulPartitionedCall/Cast_22", "op": "Const", "attr": {"value": {"tensor": {"dtype": "DT_INT64", "tensorShape": {"dim": [{"size": "1"}]}}}, "dtype": {"type": "DT_INT64"}}}, {"name": "StatefulPartitionedCall/GatherV2_8", "op": "Const", "attr": {"value": {"tensor": {"dtype": "DT_INT64", "tensorShape": {"dim": [{}]}}}, "dtype": {"type": "DT_INT64"}}}, {"name": "StatefulPartitionedCall/zeros_14", "op": "Const", "attr": {"value": {"tensor": {"dtype": "DT_INT64", "tensorShape": {}}}, "dtype": {"type": "DT_INT64"}}}, {"name": "StatefulPartitionedCall/onnx_tf_prefix_/h.2/attn/Transpose_3/perm", "op": "Const", "attr": {"value": {"tensor": {"dtype": "DT_INT32", "tensorShape": {"dim": [{"size": "4"}]}}}, "dtype": {"type": "DT_INT32"}}}, {"name": "StatefulPartitionedCall/onnx_tf_prefix_/h.2/attn/Shape", "op": "Const", "attr": {"value": {"tensor": {"dtype": "DT_INT64", "tensorShape": {"dim": [{"size": "4"}]}}}, "dtype": {"type": "DT_INT64"}}}, {"name": "StatefulPartitionedCall/SelectV2_25", "op": "Const", "attr": {"value": {"tensor": {"dtype": "DT_INT64", "tensorShape": {"dim": [{"size": "1"}]}}}, "dtype": {"type": "DT_INT64"}}}, {"name": "StatefulPartitionedCall/zeros_17", "op": "Const", "attr": {"value": {"tensor": {"dtype": "DT_INT64", "tensorShape": {}}}, "dtype": {"type": "DT_INT64"}}}, {"name": "StatefulPartitionedCall/Const_28", "op": "Const", "attr": {"value": {"tensor": {"dtype": "DT_INT64", "tensorShape": {}}}, "dtype": {"type": "DT_INT64"}}}, {"name": "StatefulPartitionedCall/Shape_34", "op": "Const", "attr": {"value": {"tensor": {"dtype": "DT_INT64", "tensorShape": {"dim": [{"size": "1"}]}}}, "dtype": {"type": "DT_INT64"}}}, {"name": "StatefulPartitionedCall/ExpandDims_6", "op": "Const", "attr": {"value": {"tensor": {"dtype": "DT_INT64", "tensorShape": {"dim": [{"size": "1"}, {"size": "1"}]}}}, "dtype": {"type": "DT_INT64"}}}, {"name": "StatefulPartitionedCall/Cast_26", "op": "Const", "attr": {"value": {"tensor": {"dtype": "DT_INT64", "tensorShape": {"dim": [{"size": "1"}]}}}, "dtype": {"type": "DT_INT64"}}}, {"name": "StatefulPartitionedCall/SelectV2_26", "op": "Const", "attr": {"value": {"tensor": {"dtype": "DT_INT64", "tensorShape": {"dim": [{"size": "1"}]}}}, "dtype": {"type": "DT_INT64"}}}, {"name": "StatefulPartitionedCall/Const_27", "op": "Const", "attr": {"value": {"tensor": {"dtype": "DT_INT64", "tensorShape": {}}}, "dtype": {"type": "DT_INT64"}}}, {"name": "StatefulPartitionedCall/ones_8", "op": "Const", "attr": {"value": {"tensor": {"dtype": "DT_INT64", "tensorShape": {"dim": [{"size": "1"}]}}}, "dtype": {"type": "DT_INT64"}}}, {"name": "Func/StatefulPartitionedCall/cond_2/then/_75/input/_171", "op": "Const", "attr": {"value": {"tensor": {"dtype": "DT_INT64", "tensorShape": {}}}, "dtype": {"type": "DT_INT64"}}}, {"name": "Func/StatefulPartitionedCall/cond_2/then/_75/input/_172", "op": "Const", "attr": {"value": {"tensor": {"dtype": "DT_INT64", "tensorShape": {}}}, "dtype": {"type": "DT_INT64"}}}, {"name": "StatefulPartitionedCall/onnx_tf_prefix_/h.2/attn/Constant_9", "op": "Const", "attr": {"value": {"tensor": {"dtype": "DT_FLOAT", "tensorShape": {"dim": [{"size": "1"}]}}}, "dtype": {"type": "DT_FLOAT"}}}, {"name": "StatefulPartitionedCall/onnx_tf_prefix_/h.2/attn/Shape_1", "op": "Const", "attr": {"value": {"tensor": {"dtype": "DT_INT64", "tensorShape": {"dim": [{"size": "4"}]}}}, "dtype": {"type": "DT_INT64"}}}, {"name": "StatefulPartitionedCall/SelectV2_29", "op": "Const", "attr": {"value": {"tensor": {"dtype": "DT_INT64", "tensorShape": {"dim": [{"size": "1"}]}}}, "dtype": {"type": "DT_INT64"}}}, {"name": "StatefulPartitionedCall/zeros_18", "op": "Const", "attr": {"value": {"tensor": {"dtype": "DT_INT64", "tensorShape": {}}}, "dtype": {"type": "DT_INT64"}}}, {"name": "StatefulPartitionedCall/Const_30", "op": "Const", "attr": {"value": {"tensor": {"dtype": "DT_INT64", "tensorShape": {}}}, "dtype": {"type": "DT_INT64"}}}, {"name": "StatefulPartitionedCall/Shape_36", "op": "Const", "attr": {"value": {"tensor": {"dtype": "DT_INT64", "tensorShape": {"dim": [{"size": "1"}]}}}, "dtype": {"type": "DT_INT64"}}}, {"name": "StatefulPartitionedCall/ExpandDims_7", "op": "Const", "attr": {"value": {"tensor": {"dtype": "DT_INT64", "tensorShape": {"dim": [{"size": "1"}, {"size": "1"}]}}}, "dtype": {"type": "DT_INT64"}}}, {"name": "StatefulPartitionedCall/Cast_28", "op": "Const", "attr": {"value": {"tensor": {"dtype": "DT_INT64", "tensorShape": {"dim": [{"size": "1"}]}}}, "dtype": {"type": "DT_INT64"}}}, {"name": "StatefulPartitionedCall/SelectV2_30", "op": "Const", "attr": {"value": {"tensor": {"dtype": "DT_INT64", "tensorShape": {"dim": [{"size": "1"}]}}}, "dtype": {"type": "DT_INT64"}}}, {"name": "StatefulPartitionedCall/Const_29", "op": "Const", "attr": {"value": {"tensor": {"dtype": "DT_INT64", "tensorShape": {}}}, "dtype": {"type": "DT_INT64"}}}, {"name": "StatefulPartitionedCall/ones_9", "op": "Const", "attr": {"value": {"tensor": {"dtype": "DT_INT64", "tensorShape": {"dim": [{"size": "1"}]}}}, "dtype": {"type": "DT_INT64"}}}, {"name": "StatefulPartitionedCall/onnx_tf_prefix_/h.2/attn/Shape_2", "op": "Const", "attr": {"value": {"tensor": {"dtype": "DT_INT64", "tensorShape": {"dim": [{"size": "4"}]}}}, "dtype": {"type": "DT_INT64"}}}, {"name": "StatefulPartitionedCall/SelectV2_33", "op": "Const", "attr": {"value": {"tensor": {"dtype": "DT_INT64", "tensorShape": {"dim": [{"size": "1"}]}}}, "dtype": {"type": "DT_INT64"}}}, {"name": "StatefulPartitionedCall/zeros_19", "op": "Const", "attr": {"value": {"tensor": {"dtype": "DT_INT64", "tensorShape": {}}}, "dtype": {"type": "DT_INT64"}}}, {"name": "StatefulPartitionedCall/Const_32", "op": "Const", "attr": {"value": {"tensor": {"dtype": "DT_INT64", "tensorShape": {}}}, "dtype": {"type": "DT_INT64"}}}, {"name": "StatefulPartitionedCall/Shape_38", "op": "Const", "attr": {"value": {"tensor": {"dtype": "DT_INT64", "tensorShape": {"dim": [{"size": "1"}]}}}, "dtype": {"type": "DT_INT64"}}}, {"name": "StatefulPartitionedCall/ExpandDims_8", "op": "Const", "attr": {"value": {"tensor": {"dtype": "DT_INT64", "tensorShape": {"dim": [{"size": "1"}, {"size": "1"}]}}}, "dtype": {"type": "DT_INT64"}}}, {"name": "StatefulPartitionedCall/Cast_30", "op": "Const", "attr": {"value": {"tensor": {"dtype": "DT_INT64", "tensorShape": {"dim": [{"size": "1"}]}}}, "dtype": {"type": "DT_INT64"}}}, {"name": "StatefulPartitionedCall/SelectV2_34", "op": "Const", "attr": {"value": {"tensor": {"dtype": "DT_INT64", "tensorShape": {"dim": [{"size": "1"}]}}}, "dtype": {"type": "DT_INT64"}}}, {"name": "StatefulPartitionedCall/Const_31", "op": "Const", "attr": {"value": {"tensor": {"dtype": "DT_INT64", "tensorShape": {}}}, "dtype": {"type": "DT_INT64"}}}, {"name": "StatefulPartitionedCall/ones_10", "op": "Const", "attr": {"value": {"tensor": {"dtype": "DT_INT64", "tensorShape": {"dim": [{"size": "1"}]}}}, "dtype": {"type": "DT_INT64"}}}, {"name": "StatefulPartitionedCall/onnx_tf_prefix_/h.2/attn/Concat/axis", "op": "Const", "attr": {"value": {"tensor": {"dtype": "DT_INT32", "tensorShape": {}}}, "dtype": {"type": "DT_INT32"}}}, {"name": "StatefulPartitionedCall/ones_11/Const", "op": "Const", "attr": {"value": {"tensor": {"dtype": "DT_FLOAT", "tensorShape": {}}}, "dtype": {"type": "DT_FLOAT"}}}, {"name": "StatefulPartitionedCall/Const_33", "op": "Const", "attr": {"value": {"tensor": {"dtype": "DT_INT64", "tensorShape": {}}}, "dtype": {"type": "DT_INT64"}}}, {"name": "StatefulPartitionedCall/Const_34", "op": "Const", "attr": {"value": {"tensor": {"dtype": "DT_INT64", "tensorShape": {}}}, "dtype": {"type": "DT_INT64"}}}, {"name": "StatefulPartitionedCall/GreaterEqual_3", "op": "Const", "attr": {"value": {"tensor": {"dtype": "DT_BOOL", "tensorShape": {}}}, "dtype": {"type": "DT_BOOL"}}}, {"name": "StatefulPartitionedCall/onnx_tf_prefix_/h.2/attn/Constant_12", "op": "Const", "attr": {"value": {"tensor": {"dtype": "DT_FLOAT", "tensorShape": {"dim": [{"size": "1"}]}}}, "dtype": {"type": "DT_FLOAT"}}}, {"name": "StatefulPartitionedCall/onnx_tf_prefix_/h.2/attn/Constant_11", "op": "Const", "attr": {"value": {"tensor": {"dtype": "DT_FLOAT", "tensorShape": {"dim": [{"size": "1"}]}}}, "dtype": {"type": "DT_FLOAT"}}}, {"name": "StatefulPartitionedCall/onnx_tf_prefix_/h.2/attn/Constant_10", "op": "Const", "attr": {"value": {"tensor": {"dtype": "DT_FLOAT", "tensorShape": {"dim": [{"size": "1"}]}}}, "dtype": {"type": "DT_FLOAT"}}}, {"name": "unknown_13", "op": "Const", "attr": {"value": {"tensor": {"dtype": "DT_FLOAT", "tensorShape": {"dim": [{"size": "384"}]}}}, "dtype": {"type": "DT_FLOAT"}}}, {"name": "StatefulPartitionedCall/onnx_tf_prefix_/h.1/mlp/gelu/Constant_2", "op": "Const", "attr": {"value": {"tensor": {"dtype": "DT_FLOAT", "tensorShape": {}}}, "dtype": {"type": "DT_FLOAT"}}}, {"name": "unknown_10", "op": "Const", "attr": {"value": {"tensor": {"dtype": "DT_FLOAT", "tensorShape": {"dim": [{"size": "384"}]}}}, "dtype": {"type": "DT_FLOAT"}}}, {"name": "StatefulPartitionedCall/onnx_tf_prefix_/h.1/attn/Constant_2", "op": "Const", "attr": {"value": {"tensor": {"dtype": "DT_INT64", "tensorShape": {"dim": [{"size": "4"}]}}}, "dtype": {"type": "DT_INT64"}}}, {"name": "StatefulPartitionedCall/Where_5", "op": "Const", "attr": {"value": {"tensor": {"dtype": "DT_INT64", "tensorShape": {"dim": [{}, {"size": "1"}]}}}, "dtype": {"type": "DT_INT64"}}}, {"name": "StatefulPartitionedCall/Cast_13", "op": "Const", "attr": {"value": {"tensor": {"dtype": "DT_INT64", "tensorShape": {"dim": [{"size": "1"}]}}}, "dtype": {"type": "DT_INT64"}}}, {"name": "StatefulPartitionedCall/GatherV2_5", "op": "Const", "attr": {"value": {"tensor": {"dtype": "DT_INT64", "tensorShape": {"dim": [{}]}}}, "dtype": {"type": "DT_INT64"}}}, {"name": "StatefulPartitionedCall/zeros_8", "op": "Const", "attr": {"value": {"tensor": {"dtype": "DT_INT64", "tensorShape": {}}}, "dtype": {"type": "DT_INT64"}}}, {"name": "StatefulPartitionedCall/onnx_tf_prefix_/h.1/attn/Transpose_1/perm", "op": "Const", "attr": {"value": {"tensor": {"dtype": "DT_INT32", "tensorShape": {"dim": [{"size": "4"}]}}}, "dtype": {"type": "DT_INT32"}}}, {"name": "StatefulPartitionedCall/onnx_tf_prefix_/h.1/attn/Constant_1", "op": "Const", "attr": {"value": {"tensor": {"dtype": "DT_INT64", "tensorShape": {"dim": [{"size": "4"}]}}}, "dtype": {"type": "DT_INT64"}}}, {"name": "StatefulPartitionedCall/Where_4", "op": "Const", "attr": {"value": {"tensor": {"dtype": "DT_INT64", "tensorShape": {"dim": [{}, {"size": "1"}]}}}, "dtype": {"type": "DT_INT64"}}}, {"name": "StatefulPartitionedCall/Cast_12", "op": "Const", "attr": {"value": {"tensor": {"dtype": "DT_INT64", "tensorShape": {"dim": [{"size": "1"}]}}}, "dtype": {"type": "DT_INT64"}}}, {"name": "StatefulPartitionedCall/GatherV2_4", "op": "Const", "attr": {"value": {"tensor": {"dtype": "DT_INT64", "tensorShape": {"dim": [{}]}}}, "dtype": {"type": "DT_INT64"}}}, {"name": "StatefulPartitionedCall/zeros_7", "op": "Const", "attr": {"value": {"tensor": {"dtype": "DT_INT64", "tensorShape": {}}}, "dtype": {"type": "DT_INT64"}}}, {"name": "StatefulPartitionedCall/onnx_tf_prefix_/h.1/attn/Transpose_3/perm", "op": "Const", "attr": {"value": {"tensor": {"dtype": "DT_INT32", "tensorShape": {"dim": [{"size": "4"}]}}}, "dtype": {"type": "DT_INT32"}}}, {"name": "StatefulPartitionedCall/onnx_tf_prefix_/h.1/attn/Shape", "op": "Const", "attr": {"value": {"tensor": {"dtype": "DT_INT64", "tensorShape": {"dim": [{"size": "4"}]}}}, "dtype": {"type": "DT_INT64"}}}, {"name": "StatefulPartitionedCall/SelectV2_13", "op": "Const", "attr": {"value": {"tensor": {"dtype": "DT_INT64", "tensorShape": {"dim": [{"size": "1"}]}}}, "dtype": {"type": "DT_INT64"}}}, {"name": "StatefulPartitionedCall/zeros_10", "op": "Const", "attr": {"value": {"tensor": {"dtype": "DT_INT64", "tensorShape": {}}}, "dtype": {"type": "DT_INT64"}}}, {"name": "StatefulPartitionedCall/Const_16", "op": "Const", "attr": {"value": {"tensor": {"dtype": "DT_INT64", "tensorShape": {}}}, "dtype": {"type": "DT_INT64"}}}, {"name": "StatefulPartitionedCall/Shape_20", "op": "Const", "attr": {"value": {"tensor": {"dtype": "DT_INT64", "tensorShape": {"dim": [{"size": "1"}]}}}, "dtype": {"type": "DT_INT64"}}}, {"name": "StatefulPartitionedCall/ExpandDims_3", "op": "Const", "attr": {"value": {"tensor": {"dtype": "DT_INT64", "tensorShape": {"dim": [{"size": "1"}, {"size": "1"}]}}}, "dtype": {"type": "DT_INT64"}}}, {"name": "StatefulPartitionedCall/Cast_16", "op": "Const", "attr": {"value": {"tensor": {"dtype": "DT_INT64", "tensorShape": {"dim": [{"size": "1"}]}}}, "dtype": {"type": "DT_INT64"}}}, {"name": "StatefulPartitionedCall/SelectV2_14", "op": "Const", "attr": {"value": {"tensor": {"dtype": "DT_INT64", "tensorShape": {"dim": [{"size": "1"}]}}}, "dtype": {"type": "DT_INT64"}}}, {"name": "StatefulPartitionedCall/Const_15", "op": "Const", "attr": {"value": {"tensor": {"dtype": "DT_INT64", "tensorShape": {}}}, "dtype": {"type": "DT_INT64"}}}, {"name": "StatefulPartitionedCall/ones_4", "op": "Const", "attr": {"value": {"tensor": {"dtype": "DT_INT64", "tensorShape": {"dim": [{"size": "1"}]}}}, "dtype": {"type": "DT_INT64"}}}, {"name": "Func/StatefulPartitionedCall/cond_1/then/_64/input/_157", "op": "Const", "attr": {"value": {"tensor": {"dtype": "DT_INT64", "tensorShape": {}}}, "dtype": {"type": "DT_INT64"}}}, {"name": "Func/StatefulPartitionedCall/cond_1/then/_64/input/_158", "op": "Const", "attr": {"value": {"tensor": {"dtype": "DT_INT64", "tensorShape": {}}}, "dtype": {"type": "DT_INT64"}}}, {"name": "StatefulPartitionedCall/onnx_tf_prefix_/h.1/attn/Constant_9", "op": "Const", "attr": {"value": {"tensor": {"dtype": "DT_FLOAT", "tensorShape": {"dim": [{"size": "1"}]}}}, "dtype": {"type": "DT_FLOAT"}}}, {"name": "StatefulPartitionedCall/onnx_tf_prefix_/h.1/attn/Shape_1", "op": "Const", "attr": {"value": {"tensor": {"dtype": "DT_INT64", "tensorShape": {"dim": [{"size": "4"}]}}}, "dtype": {"type": "DT_INT64"}}}, {"name": "StatefulPartitionedCall/SelectV2_17", "op": "Const", "attr": {"value": {"tensor": {"dtype": "DT_INT64", "tensorShape": {"dim": [{"size": "1"}]}}}, "dtype": {"type": "DT_INT64"}}}, {"name": "StatefulPartitionedCall/zeros_11", "op": "Const", "attr": {"value": {"tensor": {"dtype": "DT_INT64", "tensorShape": {}}}, "dtype": {"type": "DT_INT64"}}}, {"name": "StatefulPartitionedCall/Const_18", "op": "Const", "attr": {"value": {"tensor": {"dtype": "DT_INT64", "tensorShape": {}}}, "dtype": {"type": "DT_INT64"}}}, {"name": "StatefulPartitionedCall/Shape_22", "op": "Const", "attr": {"value": {"tensor": {"dtype": "DT_INT64", "tensorShape": {"dim": [{"size": "1"}]}}}, "dtype": {"type": "DT_INT64"}}}, {"name": "StatefulPartitionedCall/ExpandDims_4", "op": "Const", "attr": {"value": {"tensor": {"dtype": "DT_INT64", "tensorShape": {"dim": [{"size": "1"}, {"size": "1"}]}}}, "dtype": {"type": "DT_INT64"}}}, {"name": "StatefulPartitionedCall/Cast_18", "op": "Const", "attr": {"value": {"tensor": {"dtype": "DT_INT64", "tensorShape": {"dim": [{"size": "1"}]}}}, "dtype": {"type": "DT_INT64"}}}, {"name": "StatefulPartitionedCall/SelectV2_18", "op": "Const", "attr": {"value": {"tensor": {"dtype": "DT_INT64", "tensorShape": {"dim": [{"size": "1"}]}}}, "dtype": {"type": "DT_INT64"}}}, {"name": "StatefulPartitionedCall/Const_17", "op": "Const", "attr": {"value": {"tensor": {"dtype": "DT_INT64", "tensorShape": {}}}, "dtype": {"type": "DT_INT64"}}}, {"name": "StatefulPartitionedCall/ones_5", "op": "Const", "attr": {"value": {"tensor": {"dtype": "DT_INT64", "tensorShape": {"dim": [{"size": "1"}]}}}, "dtype": {"type": "DT_INT64"}}}, {"name": "StatefulPartitionedCall/onnx_tf_prefix_/h.1/attn/Shape_2", "op": "Const", "attr": {"value": {"tensor": {"dtype": "DT_INT64", "tensorShape": {"dim": [{"size": "4"}]}}}, "dtype": {"type": "DT_INT64"}}}, {"name": "StatefulPartitionedCall/SelectV2_21", "op": "Const", "attr": {"value": {"tensor": {"dtype": "DT_INT64", "tensorShape": {"dim": [{"size": "1"}]}}}, "dtype": {"type": "DT_INT64"}}}, {"name": "StatefulPartitionedCall/zeros_12", "op": "Const", "attr": {"value": {"tensor": {"dtype": "DT_INT64", "tensorShape": {}}}, "dtype": {"type": "DT_INT64"}}}, {"name": "StatefulPartitionedCall/Const_20", "op": "Const", "attr": {"value": {"tensor": {"dtype": "DT_INT64", "tensorShape": {}}}, "dtype": {"type": "DT_INT64"}}}, {"name": "StatefulPartitionedCall/Shape_24", "op": "Const", "attr": {"value": {"tensor": {"dtype": "DT_INT64", "tensorShape": {"dim": [{"size": "1"}]}}}, "dtype": {"type": "DT_INT64"}}}, {"name": "StatefulPartitionedCall/ExpandDims_5", "op": "Const", "attr": {"value": {"tensor": {"dtype": "DT_INT64", "tensorShape": {"dim": [{"size": "1"}, {"size": "1"}]}}}, "dtype": {"type": "DT_INT64"}}}, {"name": "StatefulPartitionedCall/Cast_20", "op": "Const", "attr": {"value": {"tensor": {"dtype": "DT_INT64", "tensorShape": {"dim": [{"size": "1"}]}}}, "dtype": {"type": "DT_INT64"}}}, {"name": "StatefulPartitionedCall/SelectV2_22", "op": "Const", "attr": {"value": {"tensor": {"dtype": "DT_INT64", "tensorShape": {"dim": [{"size": "1"}]}}}, "dtype": {"type": "DT_INT64"}}}, {"name": "StatefulPartitionedCall/Const_19", "op": "Const", "attr": {"value": {"tensor": {"dtype": "DT_INT64", "tensorShape": {}}}, "dtype": {"type": "DT_INT64"}}}, {"name": "StatefulPartitionedCall/ones_6", "op": "Const", "attr": {"value": {"tensor": {"dtype": "DT_INT64", "tensorShape": {"dim": [{"size": "1"}]}}}, "dtype": {"type": "DT_INT64"}}}, {"name": "StatefulPartitionedCall/onnx_tf_prefix_/h.1/attn/Concat/axis", "op": "Const", "attr": {"value": {"tensor": {"dtype": "DT_INT32", "tensorShape": {}}}, "dtype": {"type": "DT_INT32"}}}, {"name": "StatefulPartitionedCall/ones_7/Const", "op": "Const", "attr": {"value": {"tensor": {"dtype": "DT_FLOAT", "tensorShape": {}}}, "dtype": {"type": "DT_FLOAT"}}}, {"name": "StatefulPartitionedCall/Const_21", "op": "Const", "attr": {"value": {"tensor": {"dtype": "DT_INT64", "tensorShape": {}}}, "dtype": {"type": "DT_INT64"}}}, {"name": "StatefulPartitionedCall/Const_22", "op": "Const", "attr": {"value": {"tensor": {"dtype": "DT_INT64", "tensorShape": {}}}, "dtype": {"type": "DT_INT64"}}}, {"name": "StatefulPartitionedCall/GreaterEqual_2", "op": "Const", "attr": {"value": {"tensor": {"dtype": "DT_BOOL", "tensorShape": {}}}, "dtype": {"type": "DT_BOOL"}}}, {"name": "StatefulPartitionedCall/onnx_tf_prefix_/h.1/attn/Constant_12", "op": "Const", "attr": {"value": {"tensor": {"dtype": "DT_FLOAT", "tensorShape": {"dim": [{"size": "1"}]}}}, "dtype": {"type": "DT_FLOAT"}}}, {"name": "StatefulPartitionedCall/onnx_tf_prefix_/h.1/attn/Constant_11", "op": "Const", "attr": {"value": {"tensor": {"dtype": "DT_FLOAT", "tensorShape": {"dim": [{"size": "1"}]}}}, "dtype": {"type": "DT_FLOAT"}}}, {"name": "StatefulPartitionedCall/onnx_tf_prefix_/h.1/attn/Constant_10", "op": "Const", "attr": {"value": {"tensor": {"dtype": "DT_FLOAT", "tensorShape": {"dim": [{"size": "1"}]}}}, "dtype": {"type": "DT_FLOAT"}}}, {"name": "unknown_7", "op": "Const", "attr": {"value": {"tensor": {"dtype": "DT_FLOAT", "tensorShape": {"dim": [{"size": "384"}]}}}, "dtype": {"type": "DT_FLOAT"}}}, {"name": "StatefulPartitionedCall/onnx_tf_prefix_/h.0/mlp/gelu/Constant_2", "op": "Const", "attr": {"value": {"tensor": {"dtype": "DT_FLOAT", "tensorShape": {}}}, "dtype": {"type": "DT_FLOAT"}}}, {"name": "unknown_4", "op": "Const", "attr": {"value": {"tensor": {"dtype": "DT_FLOAT", "tensorShape": {"dim": [{"size": "384"}]}}}, "dtype": {"type": "DT_FLOAT"}}}, {"name": "StatefulPartitionedCall/onnx_tf_prefix_/h.0/attn/Constant_2", "op": "Const", "attr": {"value": {"tensor": {"dtype": "DT_INT64", "tensorShape": {"dim": [{"size": "4"}]}}}, "dtype": {"type": "DT_INT64"}}}, {"name": "StatefulPartitionedCall/Where_1", "op": "Const", "attr": {"value": {"tensor": {"dtype": "DT_INT64", "tensorShape": {"dim": [{}, {"size": "1"}]}}}, "dtype": {"type": "DT_INT64"}}}, {"name": "StatefulPartitionedCall/Cast_3", "op": "Const", "attr": {"value": {"tensor": {"dtype": "DT_INT64", "tensorShape": {"dim": [{"size": "1"}]}}}, "dtype": {"type": "DT_INT64"}}}, {"name": "StatefulPartitionedCall/GatherV2_1", "op": "Const", "attr": {"value": {"tensor": {"dtype": "DT_INT64", "tensorShape": {"dim": [{}]}}}, "dtype": {"type": "DT_INT64"}}}, {"name": "StatefulPartitionedCall/zeros_1", "op": "Const", "attr": {"value": {"tensor": {"dtype": "DT_INT64", "tensorShape": {}}}, "dtype": {"type": "DT_INT64"}}}, {"name": "StatefulPartitionedCall/onnx_tf_prefix_/h.0/attn/Transpose_1/perm", "op": "Const", "attr": {"value": {"tensor": {"dtype": "DT_INT32", "tensorShape": {"dim": [{"size": "4"}]}}}, "dtype": {"type": "DT_INT32"}}}, {"name": "StatefulPartitionedCall/onnx_tf_prefix_/h.0/attn/Constant_1", "op": "Const", "attr": {"value": {"tensor": {"dtype": "DT_INT64", "tensorShape": {"dim": [{"size": "4"}]}}}, "dtype": {"type": "DT_INT64"}}}, {"name": "StatefulPartitionedCall/Where", "op": "Const", "attr": {"value": {"tensor": {"dtype": "DT_INT64", "tensorShape": {"dim": [{}, {"size": "1"}]}}}, "dtype": {"type": "DT_INT64"}}}, {"name": "StatefulPartitionedCall/Cast_2", "op": "Const", "attr": {"value": {"tensor": {"dtype": "DT_INT64", "tensorShape": {"dim": [{"size": "1"}]}}}, "dtype": {"type": "DT_INT64"}}}, {"name": "StatefulPartitionedCall/GatherV2", "op": "Const", "attr": {"value": {"tensor": {"dtype": "DT_INT64", "tensorShape": {"dim": [{}]}}}, "dtype": {"type": "DT_INT64"}}}, {"name": "StatefulPartitionedCall/zeros", "op": "Const", "attr": {"value": {"tensor": {"dtype": "DT_INT64", "tensorShape": {}}}, "dtype": {"type": "DT_INT64"}}}, {"name": "StatefulPartitionedCall/onnx_tf_prefix_/h.0/attn/Transpose_3/perm", "op": "Const", "attr": {"value": {"tensor": {"dtype": "DT_INT32", "tensorShape": {"dim": [{"size": "4"}]}}}, "dtype": {"type": "DT_INT32"}}}, {"name": "StatefulPartitionedCall/onnx_tf_prefix_/h.0/attn/Shape", "op": "Const", "attr": {"value": {"tensor": {"dtype": "DT_INT64", "tensorShape": {"dim": [{"size": "4"}]}}}, "dtype": {"type": "DT_INT64"}}}, {"name": "StatefulPartitionedCall/SelectV2_1", "op": "Const", "attr": {"value": {"tensor": {"dtype": "DT_INT64", "tensorShape": {"dim": [{"size": "1"}]}}}, "dtype": {"type": "DT_INT64"}}}, {"name": "StatefulPartitionedCall/zeros_3", "op": "Const", "attr": {"value": {"tensor": {"dtype": "DT_INT64", "tensorShape": {}}}, "dtype": {"type": "DT_INT64"}}}, {"name": "StatefulPartitionedCall/Const_4", "op": "Const", "attr": {"value": {"tensor": {"dtype": "DT_INT64", "tensorShape": {}}}, "dtype": {"type": "DT_INT64"}}}, {"name": "StatefulPartitionedCall/Shape_6", "op": "Const", "attr": {"value": {"tensor": {"dtype": "DT_INT64", "tensorShape": {"dim": [{"size": "1"}]}}}, "dtype": {"type": "DT_INT64"}}}, {"name": "StatefulPartitionedCall/ExpandDims", "op": "Const", "attr": {"value": {"tensor": {"dtype": "DT_INT64", "tensorShape": {"dim": [{"size": "1"}, {"size": "1"}]}}}, "dtype": {"type": "DT_INT64"}}}, {"name": "StatefulPartitionedCall/Cast_6", "op": "Const", "attr": {"value": {"tensor": {"dtype": "DT_INT64", "tensorShape": {"dim": [{"size": "1"}]}}}, "dtype": {"type": "DT_INT64"}}}, {"name": "StatefulPartitionedCall/SelectV2_2", "op": "Const", "attr": {"value": {"tensor": {"dtype": "DT_INT64", "tensorShape": {"dim": [{"size": "1"}]}}}, "dtype": {"type": "DT_INT64"}}}, {"name": "StatefulPartitionedCall/Const_3", "op": "Const", "attr": {"value": {"tensor": {"dtype": "DT_INT64", "tensorShape": {}}}, "dtype": {"type": "DT_INT64"}}}, {"name": "StatefulPartitionedCall/ones", "op": "Const", "attr": {"value": {"tensor": {"dtype": "DT_INT64", "tensorShape": {"dim": [{"size": "1"}]}}}, "dtype": {"type": "DT_INT64"}}}, {"name": "Func/StatefulPartitionedCall/cond/then/_53/input/_143", "op": "Const", "attr": {"value": {"tensor": {"dtype": "DT_INT64", "tensorShape": {}}}, "dtype": {"type": "DT_INT64"}}}, {"name": "Func/StatefulPartitionedCall/cond/then/_53/input/_144", "op": "Const", "attr": {"value": {"tensor": {"dtype": "DT_INT64", "tensorShape": {}}}, "dtype": {"type": "DT_INT64"}}}, {"name": "StatefulPartitionedCall/onnx_tf_prefix_/h.0/attn/Constant_9", "op": "Const", "attr": {"value": {"tensor": {"dtype": "DT_FLOAT", "tensorShape": {"dim": [{"size": "1"}]}}}, "dtype": {"type": "DT_FLOAT"}}}, {"name": "StatefulPartitionedCall/onnx_tf_prefix_/h.0/attn/Shape_1", "op": "Const", "attr": {"value": {"tensor": {"dtype": "DT_INT64", "tensorShape": {"dim": [{"size": "4"}]}}}, "dtype": {"type": "DT_INT64"}}}, {"name": "StatefulPartitionedCall/SelectV2_5", "op": "Const", "attr": {"value": {"tensor": {"dtype": "DT_INT64", "tensorShape": {"dim": [{"size": "1"}]}}}, "dtype": {"type": "DT_INT64"}}}, {"name": "StatefulPartitionedCall/zeros_4", "op": "Const", "attr": {"value": {"tensor": {"dtype": "DT_INT64", "tensorShape": {}}}, "dtype": {"type": "DT_INT64"}}}, {"name": "StatefulPartitionedCall/Const_6", "op": "Const", "attr": {"value": {"tensor": {"dtype": "DT_INT64", "tensorShape": {}}}, "dtype": {"type": "DT_INT64"}}}, {"name": "StatefulPartitionedCall/Shape_8", "op": "Const", "attr": {"value": {"tensor": {"dtype": "DT_INT64", "tensorShape": {"dim": [{"size": "1"}]}}}, "dtype": {"type": "DT_INT64"}}}, {"name": "StatefulPartitionedCall/ExpandDims_1", "op": "Const", "attr": {"value": {"tensor": {"dtype": "DT_INT64", "tensorShape": {"dim": [{"size": "1"}, {"size": "1"}]}}}, "dtype": {"type": "DT_INT64"}}}, {"name": "StatefulPartitionedCall/Cast_8", "op": "Const", "attr": {"value": {"tensor": {"dtype": "DT_INT64", "tensorShape": {"dim": [{"size": "1"}]}}}, "dtype": {"type": "DT_INT64"}}}, {"name": "StatefulPartitionedCall/SelectV2_6", "op": "Const", "attr": {"value": {"tensor": {"dtype": "DT_INT64", "tensorShape": {"dim": [{"size": "1"}]}}}, "dtype": {"type": "DT_INT64"}}}, {"name": "StatefulPartitionedCall/Const_5", "op": "Const", "attr": {"value": {"tensor": {"dtype": "DT_INT64", "tensorShape": {}}}, "dtype": {"type": "DT_INT64"}}}, {"name": "StatefulPartitionedCall/ones_1", "op": "Const", "attr": {"value": {"tensor": {"dtype": "DT_INT64", "tensorShape": {"dim": [{"size": "1"}]}}}, "dtype": {"type": "DT_INT64"}}}, {"name": "StatefulPartitionedCall/onnx_tf_prefix_/h.0/attn/Shape_2", "op": "Const", "attr": {"value": {"tensor": {"dtype": "DT_INT64", "tensorShape": {"dim": [{"size": "4"}]}}}, "dtype": {"type": "DT_INT64"}}}, {"name": "StatefulPartitionedCall/SelectV2_9", "op": "Const", "attr": {"value": {"tensor": {"dtype": "DT_INT64", "tensorShape": {"dim": [{"size": "1"}]}}}, "dtype": {"type": "DT_INT64"}}}, {"name": "StatefulPartitionedCall/zeros_5", "op": "Const", "attr": {"value": {"tensor": {"dtype": "DT_INT64", "tensorShape": {}}}, "dtype": {"type": "DT_INT64"}}}, {"name": "StatefulPartitionedCall/Const_8", "op": "Const", "attr": {"value": {"tensor": {"dtype": "DT_INT64", "tensorShape": {}}}, "dtype": {"type": "DT_INT64"}}}, {"name": "StatefulPartitionedCall/Shape_10", "op": "Const", "attr": {"value": {"tensor": {"dtype": "DT_INT64", "tensorShape": {"dim": [{"size": "1"}]}}}, "dtype": {"type": "DT_INT64"}}}, {"name": "StatefulPartitionedCall/ExpandDims_2", "op": "Const", "attr": {"value": {"tensor": {"dtype": "DT_INT64", "tensorShape": {"dim": [{"size": "1"}, {"size": "1"}]}}}, "dtype": {"type": "DT_INT64"}}}, {"name": "StatefulPartitionedCall/Cast_10", "op": "Const", "attr": {"value": {"tensor": {"dtype": "DT_INT64", "tensorShape": {"dim": [{"size": "1"}]}}}, "dtype": {"type": "DT_INT64"}}}, {"name": "StatefulPartitionedCall/SelectV2_10", "op": "Const", "attr": {"value": {"tensor": {"dtype": "DT_INT64", "tensorShape": {"dim": [{"size": "1"}]}}}, "dtype": {"type": "DT_INT64"}}}, {"name": "StatefulPartitionedCall/Const_7", "op": "Const", "attr": {"value": {"tensor": {"dtype": "DT_INT64", "tensorShape": {}}}, "dtype": {"type": "DT_INT64"}}}, {"name": "StatefulPartitionedCall/ones_2", "op": "Const", "attr": {"value": {"tensor": {"dtype": "DT_INT64", "tensorShape": {"dim": [{"size": "1"}]}}}, "dtype": {"type": "DT_INT64"}}}, {"name": "StatefulPartitionedCall/onnx_tf_prefix_/h.0/attn/Concat/axis", "op": "Const", "attr": {"value": {"tensor": {"dtype": "DT_INT32", "tensorShape": {}}}, "dtype": {"type": "DT_INT32"}}}, {"name": "StatefulPartitionedCall/ones_3/Const", "op": "Const", "attr": {"value": {"tensor": {"dtype": "DT_FLOAT", "tensorShape": {}}}, "dtype": {"type": "DT_FLOAT"}}}, {"name": "StatefulPartitionedCall/Const_9", "op": "Const", "attr": {"value": {"tensor": {"dtype": "DT_INT64", "tensorShape": {}}}, "dtype": {"type": "DT_INT64"}}}, {"name": "StatefulPartitionedCall/Const_10", "op": "Const", "attr": {"value": {"tensor": {"dtype": "DT_INT64", "tensorShape": {}}}, "dtype": {"type": "DT_INT64"}}}, {"name": "StatefulPartitionedCall/GreaterEqual_1", "op": "Const", "attr": {"value": {"tensor": {"dtype": "DT_BOOL", "tensorShape": {}}}, "dtype": {"type": "DT_BOOL"}}}, {"name": "StatefulPartitionedCall/onnx_tf_prefix_/h.0/attn/Constant_12", "op": "Const", "attr": {"value": {"tensor": {"dtype": "DT_FLOAT", "tensorShape": {"dim": [{"size": "1"}]}}}, "dtype": {"type": "DT_FLOAT"}}}, {"name": "StatefulPartitionedCall/onnx_tf_prefix_/h.0/attn/Constant_11", "op": "Const", "attr": {"value": {"tensor": {"dtype": "DT_FLOAT", "tensorShape": {"dim": [{"size": "1"}]}}}, "dtype": {"type": "DT_FLOAT"}}}, {"name": "StatefulPartitionedCall/onnx_tf_prefix_/h.0/attn/Constant_10", "op": "Const", "attr": {"value": {"tensor": {"dtype": "DT_FLOAT", "tensorShape": {"dim": [{"size": "1"}]}}}, "dtype": {"type": "DT_FLOAT"}}}, {"name": "unknown_1", "op": "Const", "attr": {"value": {"tensor": {"dtype": "DT_FLOAT", "tensorShape": {"dim": [{"size": "384"}]}}}, "dtype": {"type": "DT_FLOAT"}}}, {"name": "unknown", "op": "Const", "attr": {"value": {"tensor": {"dtype": "DT_FLOAT", "tensorShape": {"dim": [{"size": "65"}, {"size": "384"}]}}}, "dtype": {"type": "DT_FLOAT"}}}, {"name": "unknown_0", "op": "Const", "attr": {"value": {"tensor": {"dtype": "DT_FLOAT", "tensorShape": {"dim": [{"size": "256"}, {"size": "384"}]}}}, "dtype": {"type": "DT_FLOAT"}}}, {"name": "StatefulPartitionedCall/onnx_tf_prefix_/h.0/ln_1/ReduceMean/reduction_indices", "op": "Const", "attr": {"value": {"tensor": {"dtype": "DT_INT32", "tensorShape": {}}}, "dtype": {"type": "DT_INT32"}}}, {"name": "StatefulPartitionedCall/onnx_tf_prefix_/h.0/ln_1/ReduceMean_1/reduction_indices", "op": "Const", "attr": {"value": {"tensor": {"dtype": "DT_INT32", "tensorShape": {}}}, "dtype": {"type": "DT_INT32"}}}, {"name": "StatefulPartitionedCall/onnx_tf_prefix_/h.0/ln_1/Constant_1", "op": "Const", "attr": {"value": {"tensor": {"dtype": "DT_FLOAT", "tensorShape": {}}}, "dtype": {"type": "DT_FLOAT"}}}, {"name": "unknown_2", "op": "Const", "attr": {"value": {"tensor": {"dtype": "DT_FLOAT", "tensorShape": {"dim": [{"size": "384"}, {"size": "1152"}]}}}, "dtype": {"type": "DT_FLOAT"}}}, {"name": "StatefulPartitionedCall/onnx_tf_prefix_/h.0/attn/Constant", "op": "Const", "attr": {"value": {"tensor": {"dtype": "DT_INT64", "tensorShape": {"dim": [{"size": "3"}]}}}, "dtype": {"type": "DT_INT64"}}}, {"name": "StatefulPartitionedCall/onnx_tf_prefix_/h.0/attn/Split/split_dim", "op": "Const", "attr": {"value": {"tensor": {"dtype": "DT_INT32", "tensorShape": {}}}, "dtype": {"type": "DT_INT32"}}}, {"name": "StatefulPartitionedCall/onnx_tf_prefix_/h.0/attn/Constant_3", "op": "Const", "attr": {"value": {"tensor": {"dtype": "DT_INT64", "tensorShape": {"dim": [{"size": "4"}]}}}, "dtype": {"type": "DT_INT64"}}}, {"name": "StatefulPartitionedCall/Where_2", "op": "Const", "attr": {"value": {"tensor": {"dtype": "DT_INT64", "tensorShape": {"dim": [{}, {"size": "1"}]}}}, "dtype": {"type": "DT_INT64"}}}, {"name": "StatefulPartitionedCall/Cast_4", "op": "Const", "attr": {"value": {"tensor": {"dtype": "DT_INT64", "tensorShape": {"dim": [{"size": "1"}]}}}, "dtype": {"type": "DT_INT64"}}}, {"name": "StatefulPartitionedCall/GatherV2_2", "op": "Const", "attr": {"value": {"tensor": {"dtype": "DT_INT64", "tensorShape": {"dim": [{}]}}}, "dtype": {"type": "DT_INT64"}}}, {"name": "StatefulPartitionedCall/zeros_2", "op": "Const", "attr": {"value": {"tensor": {"dtype": "DT_INT64", "tensorShape": {}}}, "dtype": {"type": "DT_INT64"}}}, {"name": "StatefulPartitionedCall/onnx_tf_prefix_/h.0/attn/Transpose_2/perm", "op": "Const", "attr": {"value": {"tensor": {"dtype": "DT_INT32", "tensorShape": {"dim": [{"size": "4"}]}}}, "dtype": {"type": "DT_INT32"}}}, {"name": "StatefulPartitionedCall/onnx_tf_prefix_/h.0/attn/Transpose_4/perm", "op": "Const", "attr": {"value": {"tensor": {"dtype": "DT_INT32", "tensorShape": {"dim": [{"size": "4"}]}}}, "dtype": {"type": "DT_INT32"}}}, {"name": "StatefulPartitionedCall/onnx_tf_prefix_/h.0/attn/Constant_13", "op": "Const", "attr": {"value": {"tensor": {"dtype": "DT_INT64", "tensorShape": {"dim": [{"size": "3"}]}}}, "dtype": {"type": "DT_INT64"}}}, {"name": "StatefulPartitionedCall/Where_3", "op": "Const", "attr": {"value": {"tensor": {"dtype": "DT_INT64", "tensorShape": {"dim": [{}, {"size": "1"}]}}}, "dtype": {"type": "DT_INT64"}}}, {"name": "StatefulPartitionedCall/Cast_11", "op": "Const", "attr": {"value": {"tensor": {"dtype": "DT_INT64", "tensorShape": {"dim": [{"size": "1"}]}}}, "dtype": {"type": "DT_INT64"}}}, {"name": "StatefulPartitionedCall/GatherV2_3", "op": "Const", "attr": {"value": {"tensor": {"dtype": "DT_INT64", "tensorShape": {"dim": [{}]}}}, "dtype": {"type": "DT_INT64"}}}, {"name": "StatefulPartitionedCall/zeros_6", "op": "Const", "attr": {"value": {"tensor": {"dtype": "DT_INT64", "tensorShape": {}}}, "dtype": {"type": "DT_INT64"}}}, {"name": "unknown_3", "op": "Const", "attr": {"value": {"tensor": {"dtype": "DT_FLOAT", "tensorShape": {"dim": [{"size": "384"}, {"size": "384"}]}}}, "dtype": {"type": "DT_FLOAT"}}}, {"name": "StatefulPartitionedCall/onnx_tf_prefix_/h.0/ln_2/ReduceMean/reduction_indices", "op": "Const", "attr": {"value": {"tensor": {"dtype": "DT_INT32", "tensorShape": {}}}, "dtype": {"type": "DT_INT32"}}}, {"name": "StatefulPartitionedCall/onnx_tf_prefix_/h.0/ln_2/ReduceMean_1/reduction_indices", "op": "Const", "attr": {"value": {"tensor": {"dtype": "DT_INT32", "tensorShape": {}}}, "dtype": {"type": "DT_INT32"}}}, {"name": "StatefulPartitionedCall/onnx_tf_prefix_/h.0/ln_2/Constant_1", "op": "Const", "attr": {"value": {"tensor": {"dtype": "DT_FLOAT", "tensorShape": {}}}, "dtype": {"type": "DT_FLOAT"}}}, {"name": "unknown_5", "op": "Const", "attr": {"value": {"tensor": {"dtype": "DT_FLOAT", "tensorShape": {"dim": [{"size": "384"}, {"size": "1536"}]}}}, "dtype": {"type": "DT_FLOAT"}}}, {"name": "ConstantFolding/StatefulPartitionedCall/onnx_tf_prefix_/h.0/mlp/gelu/Div_recip", "op": "Const", "attr": {"value": {"tensor": {"dtype": "DT_FLOAT", "tensorShape": {}}}, "dtype": {"type": "DT_FLOAT"}}}, {"name": "StatefulPartitionedCall/onnx_tf_prefix_/h.0/mlp/gelu/Constant_1", "op": "Const", "attr": {"value": {"tensor": {"dtype": "DT_FLOAT", "tensorShape": {}}}, "dtype": {"type": "DT_FLOAT"}}}, {"name": "unknown_6", "op": "Const", "attr": {"value": {"tensor": {"dtype": "DT_FLOAT", "tensorShape": {"dim": [{"size": "1536"}, {"size": "384"}]}}}, "dtype": {"type": "DT_FLOAT"}}}, {"name": "StatefulPartitionedCall/onnx_tf_prefix_/h.1/ln_1/ReduceMean/reduction_indices", "op": "Const", "attr": {"value": {"tensor": {"dtype": "DT_INT32", "tensorShape": {}}}, "dtype": {"type": "DT_INT32"}}}, {"name": "StatefulPartitionedCall/onnx_tf_prefix_/h.1/ln_1/ReduceMean_1/reduction_indices", "op": "Const", "attr": {"value": {"tensor": {"dtype": "DT_INT32", "tensorShape": {}}}, "dtype": {"type": "DT_INT32"}}}, {"name": "StatefulPartitionedCall/onnx_tf_prefix_/h.1/ln_1/Constant_1", "op": "Const", "attr": {"value": {"tensor": {"dtype": "DT_FLOAT", "tensorShape": {}}}, "dtype": {"type": "DT_FLOAT"}}}, {"name": "unknown_8", "op": "Const", "attr": {"value": {"tensor": {"dtype": "DT_FLOAT", "tensorShape": {"dim": [{"size": "384"}, {"size": "1152"}]}}}, "dtype": {"type": "DT_FLOAT"}}}, {"name": "StatefulPartitionedCall/onnx_tf_prefix_/h.1/attn/Constant", "op": "Const", "attr": {"value": {"tensor": {"dtype": "DT_INT64", "tensorShape": {"dim": [{"size": "3"}]}}}, "dtype": {"type": "DT_INT64"}}}, {"name": "StatefulPartitionedCall/onnx_tf_prefix_/h.1/attn/Split/split_dim", "op": "Const", "attr": {"value": {"tensor": {"dtype": "DT_INT32", "tensorShape": {}}}, "dtype": {"type": "DT_INT32"}}}, {"name": "StatefulPartitionedCall/onnx_tf_prefix_/h.1/attn/Constant_3", "op": "Const", "attr": {"value": {"tensor": {"dtype": "DT_INT64", "tensorShape": {"dim": [{"size": "4"}]}}}, "dtype": {"type": "DT_INT64"}}}, {"name": "StatefulPartitionedCall/Where_6", "op": "Const", "attr": {"value": {"tensor": {"dtype": "DT_INT64", "tensorShape": {"dim": [{}, {"size": "1"}]}}}, "dtype": {"type": "DT_INT64"}}}, {"name": "StatefulPartitionedCall/Cast_14", "op": "Const", "attr": {"value": {"tensor": {"dtype": "DT_INT64", "tensorShape": {"dim": [{"size": "1"}]}}}, "dtype": {"type": "DT_INT64"}}}, {"name": "StatefulPartitionedCall/GatherV2_6", "op": "Const", "attr": {"value": {"tensor": {"dtype": "DT_INT64", "tensorShape": {"dim": [{}]}}}, "dtype": {"type": "DT_INT64"}}}, {"name": "StatefulPartitionedCall/zeros_9", "op": "Const", "attr": {"value": {"tensor": {"dtype": "DT_INT64", "tensorShape": {}}}, "dtype": {"type": "DT_INT64"}}}, {"name": "StatefulPartitionedCall/onnx_tf_prefix_/h.1/attn/Transpose_2/perm", "op": "Const", "attr": {"value": {"tensor": {"dtype": "DT_INT32", "tensorShape": {"dim": [{"size": "4"}]}}}, "dtype": {"type": "DT_INT32"}}}, {"name": "StatefulPartitionedCall/onnx_tf_prefix_/h.1/attn/Transpose_4/perm", "op": "Const", "attr": {"value": {"tensor": {"dtype": "DT_INT32", "tensorShape": {"dim": [{"size": "4"}]}}}, "dtype": {"type": "DT_INT32"}}}, {"name": "StatefulPartitionedCall/onnx_tf_prefix_/h.1/attn/Constant_13", "op": "Const", "attr": {"value": {"tensor": {"dtype": "DT_INT64", "tensorShape": {"dim": [{"size": "3"}]}}}, "dtype": {"type": "DT_INT64"}}}, {"name": "StatefulPartitionedCall/Where_7", "op": "Const", "attr": {"value": {"tensor": {"dtype": "DT_INT64", "tensorShape": {"dim": [{}, {"size": "1"}]}}}, "dtype": {"type": "DT_INT64"}}}, {"name": "StatefulPartitionedCall/Cast_21", "op": "Const", "attr": {"value": {"tensor": {"dtype": "DT_INT64", "tensorShape": {"dim": [{"size": "1"}]}}}, "dtype": {"type": "DT_INT64"}}}, {"name": "StatefulPartitionedCall/GatherV2_7", "op": "Const", "attr": {"value": {"tensor": {"dtype": "DT_INT64", "tensorShape": {"dim": [{}]}}}, "dtype": {"type": "DT_INT64"}}}, {"name": "StatefulPartitionedCall/zeros_13", "op": "Const", "attr": {"value": {"tensor": {"dtype": "DT_INT64", "tensorShape": {}}}, "dtype": {"type": "DT_INT64"}}}, {"name": "unknown_9", "op": "Const", "attr": {"value": {"tensor": {"dtype": "DT_FLOAT", "tensorShape": {"dim": [{"size": "384"}, {"size": "384"}]}}}, "dtype": {"type": "DT_FLOAT"}}}, {"name": "StatefulPartitionedCall/onnx_tf_prefix_/h.1/ln_2/ReduceMean/reduction_indices", "op": "Const", "attr": {"value": {"tensor": {"dtype": "DT_INT32", "tensorShape": {}}}, "dtype": {"type": "DT_INT32"}}}, {"name": "StatefulPartitionedCall/onnx_tf_prefix_/h.1/ln_2/ReduceMean_1/reduction_indices", "op": "Const", "attr": {"value": {"tensor": {"dtype": "DT_INT32", "tensorShape": {}}}, "dtype": {"type": "DT_INT32"}}}, {"name": "StatefulPartitionedCall/onnx_tf_prefix_/h.1/ln_2/Constant_1", "op": "Const", "attr": {"value": {"tensor": {"dtype": "DT_FLOAT", "tensorShape": {}}}, "dtype": {"type": "DT_FLOAT"}}}, {"name": "unknown_11", "op": "Const", "attr": {"value": {"tensor": {"dtype": "DT_FLOAT", "tensorShape": {"dim": [{"size": "384"}, {"size": "1536"}]}}}, "dtype": {"type": "DT_FLOAT"}}}, {"name": "ConstantFolding/StatefulPartitionedCall/onnx_tf_prefix_/h.1/mlp/gelu/Div_recip", "op": "Const", "attr": {"value": {"tensor": {"dtype": "DT_FLOAT", "tensorShape": {}}}, "dtype": {"type": "DT_FLOAT"}}}, {"name": "StatefulPartitionedCall/onnx_tf_prefix_/h.1/mlp/gelu/Constant_1", "op": "Const", "attr": {"value": {"tensor": {"dtype": "DT_FLOAT", "tensorShape": {}}}, "dtype": {"type": "DT_FLOAT"}}}, {"name": "unknown_12", "op": "Const", "attr": {"value": {"tensor": {"dtype": "DT_FLOAT", "tensorShape": {"dim": [{"size": "1536"}, {"size": "384"}]}}}, "dtype": {"type": "DT_FLOAT"}}}, {"name": "StatefulPartitionedCall/onnx_tf_prefix_/h.2/ln_1/ReduceMean/reduction_indices", "op": "Const", "attr": {"value": {"tensor": {"dtype": "DT_INT32", "tensorShape": {}}}, "dtype": {"type": "DT_INT32"}}}, {"name": "StatefulPartitionedCall/onnx_tf_prefix_/h.2/ln_1/ReduceMean_1/reduction_indices", "op": "Const", "attr": {"value": {"tensor": {"dtype": "DT_INT32", "tensorShape": {}}}, "dtype": {"type": "DT_INT32"}}}, {"name": "StatefulPartitionedCall/onnx_tf_prefix_/h.2/ln_1/Constant_1", "op": "Const", "attr": {"value": {"tensor": {"dtype": "DT_FLOAT", "tensorShape": {}}}, "dtype": {"type": "DT_FLOAT"}}}, {"name": "unknown_14", "op": "Const", "attr": {"value": {"tensor": {"dtype": "DT_FLOAT", "tensorShape": {"dim": [{"size": "384"}, {"size": "1152"}]}}}, "dtype": {"type": "DT_FLOAT"}}}, {"name": "StatefulPartitionedCall/onnx_tf_prefix_/h.2/attn/Constant", "op": "Const", "attr": {"value": {"tensor": {"dtype": "DT_INT64", "tensorShape": {"dim": [{"size": "3"}]}}}, "dtype": {"type": "DT_INT64"}}}, {"name": "StatefulPartitionedCall/onnx_tf_prefix_/h.2/attn/Split/split_dim", "op": "Const", "attr": {"value": {"tensor": {"dtype": "DT_INT32", "tensorShape": {}}}, "dtype": {"type": "DT_INT32"}}}, {"name": "StatefulPartitionedCall/onnx_tf_prefix_/h.2/attn/Constant_3", "op": "Const", "attr": {"value": {"tensor": {"dtype": "DT_INT64", "tensorShape": {"dim": [{"size": "4"}]}}}, "dtype": {"type": "DT_INT64"}}}, {"name": "StatefulPartitionedCall/Where_10", "op": "Const", "attr": {"value": {"tensor": {"dtype": "DT_INT64", "tensorShape": {"dim": [{}, {"size": "1"}]}}}, "dtype": {"type": "DT_INT64"}}}, {"name": "StatefulPartitionedCall/Cast_24", "op": "Const", "attr": {"value": {"tensor": {"dtype": "DT_INT64", "tensorShape": {"dim": [{"size": "1"}]}}}, "dtype": {"type": "DT_INT64"}}}, {"name": "StatefulPartitionedCall/GatherV2_10", "op": "Const", "attr": {"value": {"tensor": {"dtype": "DT_INT64", "tensorShape": {"dim": [{}]}}}, "dtype": {"type": "DT_INT64"}}}, {"name": "StatefulPartitionedCall/zeros_16", "op": "Const", "attr": {"value": {"tensor": {"dtype": "DT_INT64", "tensorShape": {}}}, "dtype": {"type": "DT_INT64"}}}, {"name": "StatefulPartitionedCall/onnx_tf_prefix_/h.2/attn/Transpose_2/perm", "op": "Const", "attr": {"value": {"tensor": {"dtype": "DT_INT32", "tensorShape": {"dim": [{"size": "4"}]}}}, "dtype": {"type": "DT_INT32"}}}, {"name": "StatefulPartitionedCall/onnx_tf_prefix_/h.2/attn/Transpose_4/perm", "op": "Const", "attr": {"value": {"tensor": {"dtype": "DT_INT32", "tensorShape": {"dim": [{"size": "4"}]}}}, "dtype": {"type": "DT_INT32"}}}, {"name": "StatefulPartitionedCall/onnx_tf_prefix_/h.2/attn/Constant_13", "op": "Const", "attr": {"value": {"tensor": {"dtype": "DT_INT64", "tensorShape": {"dim": [{"size": "3"}]}}}, "dtype": {"type": "DT_INT64"}}}, {"name": "StatefulPartitionedCall/Where_11", "op": "Const", "attr": {"value": {"tensor": {"dtype": "DT_INT64", "tensorShape": {"dim": [{}, {"size": "1"}]}}}, "dtype": {"type": "DT_INT64"}}}, {"name": "StatefulPartitionedCall/Cast_31", "op": "Const", "attr": {"value": {"tensor": {"dtype": "DT_INT64", "tensorShape": {"dim": [{"size": "1"}]}}}, "dtype": {"type": "DT_INT64"}}}, {"name": "StatefulPartitionedCall/GatherV2_11", "op": "Const", "attr": {"value": {"tensor": {"dtype": "DT_INT64", "tensorShape": {"dim": [{}]}}}, "dtype": {"type": "DT_INT64"}}}, {"name": "StatefulPartitionedCall/zeros_20", "op": "Const", "attr": {"value": {"tensor": {"dtype": "DT_INT64", "tensorShape": {}}}, "dtype": {"type": "DT_INT64"}}}, {"name": "unknown_15", "op": "Const", "attr": {"value": {"tensor": {"dtype": "DT_FLOAT", "tensorShape": {"dim": [{"size": "384"}, {"size": "384"}]}}}, "dtype": {"type": "DT_FLOAT"}}}, {"name": "StatefulPartitionedCall/onnx_tf_prefix_/h.2/ln_2/ReduceMean/reduction_indices", "op": "Const", "attr": {"value": {"tensor": {"dtype": "DT_INT32", "tensorShape": {}}}, "dtype": {"type": "DT_INT32"}}}, {"name": "StatefulPartitionedCall/onnx_tf_prefix_/h.2/ln_2/ReduceMean_1/reduction_indices", "op": "Const", "attr": {"value": {"tensor": {"dtype": "DT_INT32", "tensorShape": {}}}, "dtype": {"type": "DT_INT32"}}}, {"name": "StatefulPartitionedCall/onnx_tf_prefix_/h.2/ln_2/Constant_1", "op": "Const", "attr": {"value": {"tensor": {"dtype": "DT_FLOAT", "tensorShape": {}}}, "dtype": {"type": "DT_FLOAT"}}}, {"name": "unknown_17", "op": "Const", "attr": {"value": {"tensor": {"dtype": "DT_FLOAT", "tensorShape": {"dim": [{"size": "384"}, {"size": "1536"}]}}}, "dtype": {"type": "DT_FLOAT"}}}, {"name": "ConstantFolding/StatefulPartitionedCall/onnx_tf_prefix_/h.2/mlp/gelu/Div_recip", "op": "Const", "attr": {"value": {"tensor": {"dtype": "DT_FLOAT", "tensorShape": {}}}, "dtype": {"type": "DT_FLOAT"}}}, {"name": "StatefulPartitionedCall/onnx_tf_prefix_/h.2/mlp/gelu/Constant_1", "op": "Const", "attr": {"value": {"tensor": {"dtype": "DT_FLOAT", "tensorShape": {}}}, "dtype": {"type": "DT_FLOAT"}}}, {"name": "unknown_18", "op": "Const", "attr": {"value": {"tensor": {"dtype": "DT_FLOAT", "tensorShape": {"dim": [{"size": "1536"}, {"size": "384"}]}}}, "dtype": {"type": "DT_FLOAT"}}}, {"name": "StatefulPartitionedCall/onnx_tf_prefix_/h.3/ln_1/ReduceMean/reduction_indices", "op": "Const", "attr": {"value": {"tensor": {"dtype": "DT_INT32", "tensorShape": {}}}, "dtype": {"type": "DT_INT32"}}}, {"name": "StatefulPartitionedCall/onnx_tf_prefix_/h.3/ln_1/ReduceMean_1/reduction_indices", "op": "Const", "attr": {"value": {"tensor": {"dtype": "DT_INT32", "tensorShape": {}}}, "dtype": {"type": "DT_INT32"}}}, {"name": "StatefulPartitionedCall/onnx_tf_prefix_/h.3/ln_1/Constant_1", "op": "Const", "attr": {"value": {"tensor": {"dtype": "DT_FLOAT", "tensorShape": {}}}, "dtype": {"type": "DT_FLOAT"}}}, {"name": "unknown_20", "op": "Const", "attr": {"value": {"tensor": {"dtype": "DT_FLOAT", "tensorShape": {"dim": [{"size": "384"}, {"size": "1152"}]}}}, "dtype": {"type": "DT_FLOAT"}}}, {"name": "StatefulPartitionedCall/onnx_tf_prefix_/h.3/attn/Constant", "op": "Const", "attr": {"value": {"tensor": {"dtype": "DT_INT64", "tensorShape": {"dim": [{"size": "3"}]}}}, "dtype": {"type": "DT_INT64"}}}, {"name": "StatefulPartitionedCall/onnx_tf_prefix_/h.3/attn/Split/split_dim", "op": "Const", "attr": {"value": {"tensor": {"dtype": "DT_INT32", "tensorShape": {}}}, "dtype": {"type": "DT_INT32"}}}, {"name": "StatefulPartitionedCall/onnx_tf_prefix_/h.3/attn/Constant_3", "op": "Const", "attr": {"value": {"tensor": {"dtype": "DT_INT64", "tensorShape": {"dim": [{"size": "4"}]}}}, "dtype": {"type": "DT_INT64"}}}, {"name": "StatefulPartitionedCall/Where_14", "op": "Const", "attr": {"value": {"tensor": {"dtype": "DT_INT64", "tensorShape": {"dim": [{}, {"size": "1"}]}}}, "dtype": {"type": "DT_INT64"}}}, {"name": "StatefulPartitionedCall/Cast_34", "op": "Const", "attr": {"value": {"tensor": {"dtype": "DT_INT64", "tensorShape": {"dim": [{"size": "1"}]}}}, "dtype": {"type": "DT_INT64"}}}, {"name": "StatefulPartitionedCall/GatherV2_14", "op": "Const", "attr": {"value": {"tensor": {"dtype": "DT_INT64", "tensorShape": {"dim": [{}]}}}, "dtype": {"type": "DT_INT64"}}}, {"name": "StatefulPartitionedCall/zeros_23", "op": "Const", "attr": {"value": {"tensor": {"dtype": "DT_INT64", "tensorShape": {}}}, "dtype": {"type": "DT_INT64"}}}, {"name": "StatefulPartitionedCall/onnx_tf_prefix_/h.3/attn/Transpose_2/perm", "op": "Const", "attr": {"value": {"tensor": {"dtype": "DT_INT32", "tensorShape": {"dim": [{"size": "4"}]}}}, "dtype": {"type": "DT_INT32"}}}, {"name": "StatefulPartitionedCall/onnx_tf_prefix_/h.3/attn/Transpose_4/perm", "op": "Const", "attr": {"value": {"tensor": {"dtype": "DT_INT32", "tensorShape": {"dim": [{"size": "4"}]}}}, "dtype": {"type": "DT_INT32"}}}, {"name": "StatefulPartitionedCall/onnx_tf_prefix_/h.3/attn/Constant_13", "op": "Const", "attr": {"value": {"tensor": {"dtype": "DT_INT64", "tensorShape": {"dim": [{"size": "3"}]}}}, "dtype": {"type": "DT_INT64"}}}, {"name": "StatefulPartitionedCall/Where_15", "op": "Const", "attr": {"value": {"tensor": {"dtype": "DT_INT64", "tensorShape": {"dim": [{}, {"size": "1"}]}}}, "dtype": {"type": "DT_INT64"}}}, {"name": "StatefulPartitionedCall/Cast_41", "op": "Const", "attr": {"value": {"tensor": {"dtype": "DT_INT64", "tensorShape": {"dim": [{"size": "1"}]}}}, "dtype": {"type": "DT_INT64"}}}, {"name": "StatefulPartitionedCall/GatherV2_15", "op": "Const", "attr": {"value": {"tensor": {"dtype": "DT_INT64", "tensorShape": {"dim": [{}]}}}, "dtype": {"type": "DT_INT64"}}}, {"name": "StatefulPartitionedCall/zeros_27", "op": "Const", "attr": {"value": {"tensor": {"dtype": "DT_INT64", "tensorShape": {}}}, "dtype": {"type": "DT_INT64"}}}, {"name": "unknown_21", "op": "Const", "attr": {"value": {"tensor": {"dtype": "DT_FLOAT", "tensorShape": {"dim": [{"size": "384"}, {"size": "384"}]}}}, "dtype": {"type": "DT_FLOAT"}}}, {"name": "StatefulPartitionedCall/onnx_tf_prefix_/h.3/ln_2/ReduceMean/reduction_indices", "op": "Const", "attr": {"value": {"tensor": {"dtype": "DT_INT32", "tensorShape": {}}}, "dtype": {"type": "DT_INT32"}}}, {"name": "StatefulPartitionedCall/onnx_tf_prefix_/h.3/ln_2/ReduceMean_1/reduction_indices", "op": "Const", "attr": {"value": {"tensor": {"dtype": "DT_INT32", "tensorShape": {}}}, "dtype": {"type": "DT_INT32"}}}, {"name": "StatefulPartitionedCall/onnx_tf_prefix_/h.3/ln_2/Constant_1", "op": "Const", "attr": {"value": {"tensor": {"dtype": "DT_FLOAT", "tensorShape": {}}}, "dtype": {"type": "DT_FLOAT"}}}, {"name": "unknown_23", "op": "Const", "attr": {"value": {"tensor": {"dtype": "DT_FLOAT", "tensorShape": {"dim": [{"size": "384"}, {"size": "1536"}]}}}, "dtype": {"type": "DT_FLOAT"}}}, {"name": "ConstantFolding/StatefulPartitionedCall/onnx_tf_prefix_/h.3/mlp/gelu/Div_recip", "op": "Const", "attr": {"value": {"tensor": {"dtype": "DT_FLOAT", "tensorShape": {}}}, "dtype": {"type": "DT_FLOAT"}}}, {"name": "StatefulPartitionedCall/onnx_tf_prefix_/h.3/mlp/gelu/Constant_1", "op": "Const", "attr": {"value": {"tensor": {"dtype": "DT_FLOAT", "tensorShape": {}}}, "dtype": {"type": "DT_FLOAT"}}}, {"name": "unknown_24", "op": "Const", "attr": {"value": {"tensor": {"dtype": "DT_FLOAT", "tensorShape": {"dim": [{"size": "1536"}, {"size": "384"}]}}}, "dtype": {"type": "DT_FLOAT"}}}, {"name": "StatefulPartitionedCall/onnx_tf_prefix_/h.4/ln_1/ReduceMean/reduction_indices", "op": "Const", "attr": {"value": {"tensor": {"dtype": "DT_INT32", "tensorShape": {}}}, "dtype": {"type": "DT_INT32"}}}, {"name": "StatefulPartitionedCall/onnx_tf_prefix_/h.4/ln_1/ReduceMean_1/reduction_indices", "op": "Const", "attr": {"value": {"tensor": {"dtype": "DT_INT32", "tensorShape": {}}}, "dtype": {"type": "DT_INT32"}}}, {"name": "StatefulPartitionedCall/onnx_tf_prefix_/h.4/ln_1/Constant_1", "op": "Const", "attr": {"value": {"tensor": {"dtype": "DT_FLOAT", "tensorShape": {}}}, "dtype": {"type": "DT_FLOAT"}}}, {"name": "unknown_26", "op": "Const", "attr": {"value": {"tensor": {"dtype": "DT_FLOAT", "tensorShape": {"dim": [{"size": "384"}, {"size": "1152"}]}}}, "dtype": {"type": "DT_FLOAT"}}}, {"name": "StatefulPartitionedCall/onnx_tf_prefix_/h.4/attn/Constant", "op": "Const", "attr": {"value": {"tensor": {"dtype": "DT_INT64", "tensorShape": {"dim": [{"size": "3"}]}}}, "dtype": {"type": "DT_INT64"}}}, {"name": "StatefulPartitionedCall/onnx_tf_prefix_/h.4/attn/Split/split_dim", "op": "Const", "attr": {"value": {"tensor": {"dtype": "DT_INT32", "tensorShape": {}}}, "dtype": {"type": "DT_INT32"}}}, {"name": "StatefulPartitionedCall/onnx_tf_prefix_/h.4/attn/Constant_3", "op": "Const", "attr": {"value": {"tensor": {"dtype": "DT_INT64", "tensorShape": {"dim": [{"size": "4"}]}}}, "dtype": {"type": "DT_INT64"}}}, {"name": "StatefulPartitionedCall/Where_18", "op": "Const", "attr": {"value": {"tensor": {"dtype": "DT_INT64", "tensorShape": {"dim": [{}, {"size": "1"}]}}}, "dtype": {"type": "DT_INT64"}}}, {"name": "StatefulPartitionedCall/Cast_44", "op": "Const", "attr": {"value": {"tensor": {"dtype": "DT_INT64", "tensorShape": {"dim": [{"size": "1"}]}}}, "dtype": {"type": "DT_INT64"}}}, {"name": "StatefulPartitionedCall/GatherV2_18", "op": "Const", "attr": {"value": {"tensor": {"dtype": "DT_INT64", "tensorShape": {"dim": [{}]}}}, "dtype": {"type": "DT_INT64"}}}, {"name": "StatefulPartitionedCall/zeros_30", "op": "Const", "attr": {"value": {"tensor": {"dtype": "DT_INT64", "tensorShape": {}}}, "dtype": {"type": "DT_INT64"}}}, {"name": "StatefulPartitionedCall/onnx_tf_prefix_/h.4/attn/Transpose_2/perm", "op": "Const", "attr": {"value": {"tensor": {"dtype": "DT_INT32", "tensorShape": {"dim": [{"size": "4"}]}}}, "dtype": {"type": "DT_INT32"}}}, {"name": "StatefulPartitionedCall/onnx_tf_prefix_/h.4/attn/Transpose_4/perm", "op": "Const", "attr": {"value": {"tensor": {"dtype": "DT_INT32", "tensorShape": {"dim": [{"size": "4"}]}}}, "dtype": {"type": "DT_INT32"}}}, {"name": "StatefulPartitionedCall/onnx_tf_prefix_/h.4/attn/Constant_13", "op": "Const", "attr": {"value": {"tensor": {"dtype": "DT_INT64", "tensorShape": {"dim": [{"size": "3"}]}}}, "dtype": {"type": "DT_INT64"}}}, {"name": "StatefulPartitionedCall/Where_19", "op": "Const", "attr": {"value": {"tensor": {"dtype": "DT_INT64", "tensorShape": {"dim": [{}, {"size": "1"}]}}}, "dtype": {"type": "DT_INT64"}}}, {"name": "StatefulPartitionedCall/Cast_51", "op": "Const", "attr": {"value": {"tensor": {"dtype": "DT_INT64", "tensorShape": {"dim": [{"size": "1"}]}}}, "dtype": {"type": "DT_INT64"}}}, {"name": "StatefulPartitionedCall/GatherV2_19", "op": "Const", "attr": {"value": {"tensor": {"dtype": "DT_INT64", "tensorShape": {"dim": [{}]}}}, "dtype": {"type": "DT_INT64"}}}, {"name": "StatefulPartitionedCall/zeros_34", "op": "Const", "attr": {"value": {"tensor": {"dtype": "DT_INT64", "tensorShape": {}}}, "dtype": {"type": "DT_INT64"}}}, {"name": "unknown_27", "op": "Const", "attr": {"value": {"tensor": {"dtype": "DT_FLOAT", "tensorShape": {"dim": [{"size": "384"}, {"size": "384"}]}}}, "dtype": {"type": "DT_FLOAT"}}}, {"name": "StatefulPartitionedCall/onnx_tf_prefix_/h.4/ln_2/ReduceMean/reduction_indices", "op": "Const", "attr": {"value": {"tensor": {"dtype": "DT_INT32", "tensorShape": {}}}, "dtype": {"type": "DT_INT32"}}}, {"name": "StatefulPartitionedCall/onnx_tf_prefix_/h.4/ln_2/ReduceMean_1/reduction_indices", "op": "Const", "attr": {"value": {"tensor": {"dtype": "DT_INT32", "tensorShape": {}}}, "dtype": {"type": "DT_INT32"}}}, {"name": "StatefulPartitionedCall/onnx_tf_prefix_/h.4/ln_2/Constant_1", "op": "Const", "attr": {"value": {"tensor": {"dtype": "DT_FLOAT", "tensorShape": {}}}, "dtype": {"type": "DT_FLOAT"}}}, {"name": "unknown_29", "op": "Const", "attr": {"value": {"tensor": {"dtype": "DT_FLOAT", "tensorShape": {"dim": [{"size": "384"}, {"size": "1536"}]}}}, "dtype": {"type": "DT_FLOAT"}}}, {"name": "ConstantFolding/StatefulPartitionedCall/onnx_tf_prefix_/h.4/mlp/gelu/Div_recip", "op": "Const", "attr": {"value": {"tensor": {"dtype": "DT_FLOAT", "tensorShape": {}}}, "dtype": {"type": "DT_FLOAT"}}}, {"name": "StatefulPartitionedCall/onnx_tf_prefix_/h.4/mlp/gelu/Constant_1", "op": "Const", "attr": {"value": {"tensor": {"dtype": "DT_FLOAT", "tensorShape": {}}}, "dtype": {"type": "DT_FLOAT"}}}, {"name": "unknown_30", "op": "Const", "attr": {"value": {"tensor": {"dtype": "DT_FLOAT", "tensorShape": {"dim": [{"size": "1536"}, {"size": "384"}]}}}, "dtype": {"type": "DT_FLOAT"}}}, {"name": "StatefulPartitionedCall/onnx_tf_prefix_/h.5/ln_1/ReduceMean/reduction_indices", "op": "Const", "attr": {"value": {"tensor": {"dtype": "DT_INT32", "tensorShape": {}}}, "dtype": {"type": "DT_INT32"}}}, {"name": "StatefulPartitionedCall/onnx_tf_prefix_/h.5/ln_1/ReduceMean_1/reduction_indices", "op": "Const", "attr": {"value": {"tensor": {"dtype": "DT_INT32", "tensorShape": {}}}, "dtype": {"type": "DT_INT32"}}}, {"name": "StatefulPartitionedCall/onnx_tf_prefix_/h.5/ln_1/Constant_1", "op": "Const", "attr": {"value": {"tensor": {"dtype": "DT_FLOAT", "tensorShape": {}}}, "dtype": {"type": "DT_FLOAT"}}}, {"name": "unknown_32", "op": "Const", "attr": {"value": {"tensor": {"dtype": "DT_FLOAT", "tensorShape": {"dim": [{"size": "384"}, {"size": "1152"}]}}}, "dtype": {"type": "DT_FLOAT"}}}, {"name": "StatefulPartitionedCall/onnx_tf_prefix_/h.5/attn/Constant", "op": "Const", "attr": {"value": {"tensor": {"dtype": "DT_INT64", "tensorShape": {"dim": [{"size": "3"}]}}}, "dtype": {"type": "DT_INT64"}}}, {"name": "StatefulPartitionedCall/onnx_tf_prefix_/h.5/attn/Split/split_dim", "op": "Const", "attr": {"value": {"tensor": {"dtype": "DT_INT32", "tensorShape": {}}}, "dtype": {"type": "DT_INT32"}}}, {"name": "StatefulPartitionedCall/onnx_tf_prefix_/h.5/attn/Constant_3", "op": "Const", "attr": {"value": {"tensor": {"dtype": "DT_INT64", "tensorShape": {"dim": [{"size": "4"}]}}}, "dtype": {"type": "DT_INT64"}}}, {"name": "StatefulPartitionedCall/Where_22", "op": "Const", "attr": {"value": {"tensor": {"dtype": "DT_INT64", "tensorShape": {"dim": [{}, {"size": "1"}]}}}, "dtype": {"type": "DT_INT64"}}}, {"name": "StatefulPartitionedCall/Cast_54", "op": "Const", "attr": {"value": {"tensor": {"dtype": "DT_INT64", "tensorShape": {"dim": [{"size": "1"}]}}}, "dtype": {"type": "DT_INT64"}}}, {"name": "StatefulPartitionedCall/GatherV2_22", "op": "Const", "attr": {"value": {"tensor": {"dtype": "DT_INT64", "tensorShape": {"dim": [{}]}}}, "dtype": {"type": "DT_INT64"}}}, {"name": "StatefulPartitionedCall/zeros_37", "op": "Const", "attr": {"value": {"tensor": {"dtype": "DT_INT64", "tensorShape": {}}}, "dtype": {"type": "DT_INT64"}}}, {"name": "StatefulPartitionedCall/onnx_tf_prefix_/h.5/attn/Transpose_2/perm", "op": "Const", "attr": {"value": {"tensor": {"dtype": "DT_INT32", "tensorShape": {"dim": [{"size": "4"}]}}}, "dtype": {"type": "DT_INT32"}}}, {"name": "StatefulPartitionedCall/onnx_tf_prefix_/h.5/attn/Transpose_4/perm", "op": "Const", "attr": {"value": {"tensor": {"dtype": "DT_INT32", "tensorShape": {"dim": [{"size": "4"}]}}}, "dtype": {"type": "DT_INT32"}}}, {"name": "StatefulPartitionedCall/onnx_tf_prefix_/h.5/attn/Constant_13", "op": "Const", "attr": {"value": {"tensor": {"dtype": "DT_INT64", "tensorShape": {"dim": [{"size": "3"}]}}}, "dtype": {"type": "DT_INT64"}}}, {"name": "StatefulPartitionedCall/Where_23", "op": "Const", "attr": {"value": {"tensor": {"dtype": "DT_INT64", "tensorShape": {"dim": [{}, {"size": "1"}]}}}, "dtype": {"type": "DT_INT64"}}}, {"name": "StatefulPartitionedCall/Cast_61", "op": "Const", "attr": {"value": {"tensor": {"dtype": "DT_INT64", "tensorShape": {"dim": [{"size": "1"}]}}}, "dtype": {"type": "DT_INT64"}}}, {"name": "StatefulPartitionedCall/GatherV2_23", "op": "Const", "attr": {"value": {"tensor": {"dtype": "DT_INT64", "tensorShape": {"dim": [{}]}}}, "dtype": {"type": "DT_INT64"}}}, {"name": "StatefulPartitionedCall/zeros_41", "op": "Const", "attr": {"value": {"tensor": {"dtype": "DT_INT64", "tensorShape": {}}}, "dtype": {"type": "DT_INT64"}}}, {"name": "unknown_33", "op": "Const", "attr": {"value": {"tensor": {"dtype": "DT_FLOAT", "tensorShape": {"dim": [{"size": "384"}, {"size": "384"}]}}}, "dtype": {"type": "DT_FLOAT"}}}, {"name": "StatefulPartitionedCall/onnx_tf_prefix_/h.5/ln_2/ReduceMean/reduction_indices", "op": "Const", "attr": {"value": {"tensor": {"dtype": "DT_INT32", "tensorShape": {}}}, "dtype": {"type": "DT_INT32"}}}, {"name": "StatefulPartitionedCall/onnx_tf_prefix_/h.5/ln_2/ReduceMean_1/reduction_indices", "op": "Const", "attr": {"value": {"tensor": {"dtype": "DT_INT32", "tensorShape": {}}}, "dtype": {"type": "DT_INT32"}}}, {"name": "StatefulPartitionedCall/onnx_tf_prefix_/h.5/ln_2/Constant_1", "op": "Const", "attr": {"value": {"tensor": {"dtype": "DT_FLOAT", "tensorShape": {}}}, "dtype": {"type": "DT_FLOAT"}}}, {"name": "unknown_35", "op": "Const", "attr": {"value": {"tensor": {"dtype": "DT_FLOAT", "tensorShape": {"dim": [{"size": "384"}, {"size": "1536"}]}}}, "dtype": {"type": "DT_FLOAT"}}}, {"name": "ConstantFolding/StatefulPartitionedCall/onnx_tf_prefix_/h.5/mlp/gelu/Div_recip", "op": "Const", "attr": {"value": {"tensor": {"dtype": "DT_FLOAT", "tensorShape": {}}}, "dtype": {"type": "DT_FLOAT"}}}, {"name": "StatefulPartitionedCall/onnx_tf_prefix_/h.5/mlp/gelu/Constant_1", "op": "Const", "attr": {"value": {"tensor": {"dtype": "DT_FLOAT", "tensorShape": {}}}, "dtype": {"type": "DT_FLOAT"}}}, {"name": "unknown_36", "op": "Const", "attr": {"value": {"tensor": {"dtype": "DT_FLOAT", "tensorShape": {"dim": [{"size": "1536"}, {"size": "384"}]}}}, "dtype": {"type": "DT_FLOAT"}}}, {"name": "StatefulPartitionedCall/onnx_tf_prefix_/ln_f/ReduceMean/reduction_indices", "op": "Const", "attr": {"value": {"tensor": {"dtype": "DT_INT32", "tensorShape": {}}}, "dtype": {"type": "DT_INT32"}}}, {"name": "StatefulPartitionedCall/onnx_tf_prefix_/ln_f/ReduceMean_1/reduction_indices", "op": "Const", "attr": {"value": {"tensor": {"dtype": "DT_INT32", "tensorShape": {}}}, "dtype": {"type": "DT_INT32"}}}, {"name": "StatefulPartitionedCall/onnx_tf_prefix_/ln_f/Constant_1", "op": "Const", "attr": {"value": {"tensor": {"dtype": "DT_FLOAT", "tensorShape": {}}}, "dtype": {"type": "DT_FLOAT"}}}, {"name": "unknown_38", "op": "Const", "attr": {"value": {"tensor": {"dtype": "DT_FLOAT", "tensorShape": {"dim": [{"size": "384"}, {"size": "65"}]}}}, "dtype": {"type": "DT_FLOAT"}}}, {"name": "StatefulPartitionedCall/LogicalAnd_1", "op": "Const", "attr": {"value": {"tensor": {"dtype": "DT_BOOL", "tensorShape": {"dim": [{"size": "1"}]}}}, "dtype": {"type": "DT_BOOL"}}}, {"name": "StatefulPartitionedCall/assert_equal_3/y", "op": "Const", "attr": {"value": {"tensor": {"dtype": "DT_BOOL", "tensorShape": {}}}, "dtype": {"type": "DT_BOOL"}}}, {"name": "StatefulPartitionedCall/assert_equal_3/All", "op": "Const", "attr": {"value": {"tensor": {"dtype": "DT_BOOL", "tensorShape": {}}}, "dtype": {"type": "DT_BOOL"}}}, {"name": "StatefulPartitionedCall/Neg", "op": "Const", "attr": {"value": {"tensor": {"dtype": "DT_INT64", "tensorShape": {}}}, "dtype": {"type": "DT_INT64"}}}, {"name": "StatefulPartitionedCall/strided_slice", "op": "Const", "attr": {"value": {"tensor": {"dtype": "DT_INT64", "tensorShape": {}}}, "dtype": {"type": "DT_INT64"}}}, {"name": "StatefulPartitionedCall/assert_equal_1/y", "op": "Const", "attr": {"value": {"tensor": {"dtype": "DT_BOOL", "tensorShape": {}}}, "dtype": {"type": "DT_BOOL"}}}, {"name": "StatefulPartitionedCall/assert_equal_1/Const", "op": "Const", "attr": {"value": {"tensor": {"dtype": "DT_INT32", "tensorShape": {"dim": [{"size": "2"}]}}}, "dtype": {"type": "DT_INT32"}}}, {"name": "input", "op": "Placeholder", "attr": {"shape": {"shape": {"dim": [{"size": "64"}, {"size": "256"}]}}, "dtype": {"type": "DT_INT64"}}}, {"name": "StatefulPartitionedCall/SparseToDense_51", "op": "SparseToDense", "input": ["StatefulPartitionedCall/Where_21", "StatefulPartitionedCall/Cast_53", "StatefulPartitionedCall/GatherV2_21", "StatefulPartitionedCall/zeros_36"], "attr": {"Tindices": {"type": "DT_INT64"}, "T": {"type": "DT_INT64"}, "validate_indices": {"b": true}}}, {"name": "StatefulPartitionedCall/SparseToDense_50", "op": "SparseToDense", "input": ["StatefulPartitionedCall/Where_20", "StatefulPartitionedCall/Cast_52", "StatefulPartitionedCall/GatherV2_20", "StatefulPartitionedCall/zeros_35"], "attr": {"Tindices": {"type": "DT_INT64"}, "T": {"type": "DT_INT64"}, "validate_indices": {"b": true}}}, {"name": "StatefulPartitionedCall/SparseToDense_53", "op": "SparseToDense", "input": ["StatefulPartitionedCall/ExpandDims_15", "StatefulPartitionedCall/Cast_56", "StatefulPartitionedCall/SelectV2_61", "StatefulPartitionedCall/zeros_38"], "attr": {"Tindices": {"type": "DT_INT64"}, "T": {"type": "DT_INT64"}, "validate_indices": {"b": true}}}, {"name": "StatefulPartitionedCall/SparseToDense_54", "op": "SparseToDense", "input": ["StatefulPartitionedCall/ExpandDims_15", "StatefulPartitionedCall/Cast_56", "StatefulPartitionedCall/SelectV2_62", "StatefulPartitionedCall/Const_63"], "attr": {"Tindices": {"type": "DT_INT64"}, "T": {"type": "DT_INT64"}, "validate_indices": {"b": true}}}, {"name": "StatefulPartitionedCall/SparseToDense_55", "op": "SparseToDense", "input": ["StatefulPartitionedCall/ExpandDims_16", "StatefulPartitionedCall/Cast_58", "StatefulPartitionedCall/SelectV2_65", "StatefulPartitionedCall/zeros_39"], "attr": {"Tindices": {"type": "DT_INT64"}, "T": {"type": "DT_INT64"}, "validate_indices": {"b": true}}}, {"name": "StatefulPartitionedCall/SparseToDense_56", "op": "SparseToDense", "input": ["StatefulPartitionedCall/ExpandDims_16", "StatefulPartitionedCall/Cast_58", "StatefulPartitionedCall/SelectV2_66", "StatefulPartitionedCall/Const_65"], "attr": {"Tindices": {"type": "DT_INT64"}, "T": {"type": "DT_INT64"}, "validate_indices": {"b": true}}}, {"name": "StatefulPartitionedCall/SparseToDense_57", "op": "SparseToDense", "input": ["StatefulPartitionedCall/ExpandDims_17", "StatefulPartitionedCall/Cast_60", "StatefulPartitionedCall/SelectV2_69", "StatefulPartitionedCall/zeros_40"], "attr": {"Tindices": {"type": "DT_INT64"}, "T": {"type": "DT_INT64"}, "validate_indices": {"b": true}}}, {"name": "StatefulPartitionedCall/SparseToDense_58", "op": "SparseToDense", "input": ["StatefulPartitionedCall/ExpandDims_17", "StatefulPartitionedCall/Cast_60", "StatefulPartitionedCall/SelectV2_70", "StatefulPartitionedCall/Const_67"], "attr": {"Tindices": {"type": "DT_INT64"}, "T": {"type": "DT_INT64"}, "validate_indices": {"b": true}}}, {"name": "StatefulPartitionedCall/cond_5/switch_pred/_110", "op": "Switch", "input": ["StatefulPartitionedCall/GreaterEqual_6", "StatefulPartitionedCall/GreaterEqual_6"], "attr": {"T": {"type": "DT_BOOL"}}}, {"name": "StatefulPartitionedCall/cond_5/StatefulPartitionedCall/Const_69/_115", "op": "Switch", "input": ["StatefulPartitionedCall/Const_69", "StatefulPartitionedCall/GreaterEqual_6"], "attr": {"T": {"type": "DT_INT64"}}}, {"name": "StatefulPartitionedCall/cond_5/StatefulPartitionedCall/Const_70/_114", "op": "Switch", "input": ["StatefulPartitionedCall/Const_70", "StatefulPartitionedCall/GreaterEqual_6"], "attr": {"T": {"type": "DT_INT64"}}}, {"name": "StatefulPartitionedCall/SparseToDense_41", "op": "SparseToDense", "input": ["StatefulPartitionedCall/Where_17", "StatefulPartitionedCall/Cast_43", "StatefulPartitionedCall/GatherV2_17", "StatefulPartitionedCall/zeros_29"], "attr": {"Tindices": {"type": "DT_INT64"}, "T": {"type": "DT_INT64"}, "validate_indices": {"b": true}}}, {"name": "StatefulPartitionedCall/SparseToDense_40", "op": "SparseToDense", "input": ["StatefulPartitionedCall/Where_16", "StatefulPartitionedCall/Cast_42", "StatefulPartitionedCall/GatherV2_16", "StatefulPartitionedCall/zeros_28"], "attr": {"Tindices": {"type": "DT_INT64"}, "T": {"type": "DT_INT64"}, "validate_indices": {"b": true}}}, {"name": "StatefulPartitionedCall/SparseToDense_43", "op": "SparseToDense", "input": ["StatefulPartitionedCall/ExpandDims_12", "StatefulPartitionedCall/Cast_46", "StatefulPartitionedCall/SelectV2_49", "StatefulPartitionedCall/zeros_31"], "attr": {"Tindices": {"type": "DT_INT64"}, "T": {"type": "DT_INT64"}, "validate_indices": {"b": true}}}, {"name": "StatefulPartitionedCall/SparseToDense_44", "op": "SparseToDense", "input": ["StatefulPartitionedCall/ExpandDims_12", "StatefulPartitionedCall/Cast_46", "StatefulPartitionedCall/SelectV2_50", "StatefulPartitionedCall/Const_51"], "attr": {"Tindices": {"type": "DT_INT64"}, "T": {"type": "DT_INT64"}, "validate_indices": {"b": true}}}, {"name": "StatefulPartitionedCall/SparseToDense_45", "op": "SparseToDense", "input": ["StatefulPartitionedCall/ExpandDims_13", "StatefulPartitionedCall/Cast_48", "StatefulPartitionedCall/SelectV2_53", "StatefulPartitionedCall/zeros_32"], "attr": {"Tindices": {"type": "DT_INT64"}, "T": {"type": "DT_INT64"}, "validate_indices": {"b": true}}}, {"name": "StatefulPartitionedCall/SparseToDense_46", "op": "SparseToDense", "input": ["StatefulPartitionedCall/ExpandDims_13", "StatefulPartitionedCall/Cast_48", "StatefulPartitionedCall/SelectV2_54", "StatefulPartitionedCall/Const_53"], "attr": {"Tindices": {"type": "DT_INT64"}, "T": {"type": "DT_INT64"}, "validate_indices": {"b": true}}}, {"name": "StatefulPartitionedCall/SparseToDense_47", "op": "SparseToDense", "input": ["StatefulPartitionedCall/ExpandDims_14", "StatefulPartitionedCall/Cast_50", "StatefulPartitionedCall/SelectV2_57", "StatefulPartitionedCall/zeros_33"], "attr": {"Tindices": {"type": "DT_INT64"}, "T": {"type": "DT_INT64"}, "validate_indices": {"b": true}}}, {"name": "StatefulPartitionedCall/SparseToDense_48", "op": "SparseToDense", "input": ["StatefulPartitionedCall/ExpandDims_14", "StatefulPartitionedCall/Cast_50", "StatefulPartitionedCall/SelectV2_58", "StatefulPartitionedCall/Const_55"], "attr": {"Tindices": {"type": "DT_INT64"}, "T": {"type": "DT_INT64"}, "validate_indices": {"b": true}}}, {"name": "StatefulPartitionedCall/cond_4/switch_pred/_99", "op": "Switch", "input": ["StatefulPartitionedCall/GreaterEqual_5", "StatefulPartitionedCall/GreaterEqual_5"], "attr": {"T": {"type": "DT_BOOL"}}}, {"name": "StatefulPartitionedCall/cond_4/StatefulPartitionedCall/Const_57/_104", "op": "Switch", "input": ["StatefulPartitionedCall/Const_57", "StatefulPartitionedCall/GreaterEqual_5"], "attr": {"T": {"type": "DT_INT64"}}}, {"name": "StatefulPartitionedCall/cond_4/StatefulPartitionedCall/Const_58/_103", "op": "Switch", "input": ["StatefulPartitionedCall/Const_58", "StatefulPartitionedCall/GreaterEqual_5"], "attr": {"T": {"type": "DT_INT64"}}}, {"name": "StatefulPartitionedCall/SparseToDense_31", "op": "SparseToDense", "input": ["StatefulPartitionedCall/Where_13", "StatefulPartitionedCall/Cast_33", "StatefulPartitionedCall/GatherV2_13", "StatefulPartitionedCall/zeros_22"], "attr": {"Tindices": {"type": "DT_INT64"}, "T": {"type": "DT_INT64"}, "validate_indices": {"b": true}}}, {"name": "StatefulPartitionedCall/SparseToDense_30", "op": "SparseToDense", "input": ["StatefulPartitionedCall/Where_12", "StatefulPartitionedCall/Cast_32", "StatefulPartitionedCall/GatherV2_12", "StatefulPartitionedCall/zeros_21"], "attr": {"Tindices": {"type": "DT_INT64"}, "T": {"type": "DT_INT64"}, "validate_indices": {"b": true}}}, {"name": "StatefulPartitionedCall/SparseToDense_33", "op": "SparseToDense", "input": ["StatefulPartitionedCall/ExpandDims_9", "StatefulPartitionedCall/Cast_36", "StatefulPartitionedCall/SelectV2_37", "StatefulPartitionedCall/zeros_24"], "attr": {"Tindices": {"type": "DT_INT64"}, "T": {"type": "DT_INT64"}, "validate_indices": {"b": true}}}, {"name": "StatefulPartitionedCall/SparseToDense_34", "op": "SparseToDense", "input": ["StatefulPartitionedCall/ExpandDims_9", "StatefulPartitionedCall/Cast_36", "StatefulPartitionedCall/SelectV2_38", "StatefulPartitionedCall/Const_39"], "attr": {"Tindices": {"type": "DT_INT64"}, "T": {"type": "DT_INT64"}, "validate_indices": {"b": true}}}, {"name": "StatefulPartitionedCall/SparseToDense_35", "op": "SparseToDense", "input": ["StatefulPartitionedCall/ExpandDims_10", "StatefulPartitionedCall/Cast_38", "StatefulPartitionedCall/SelectV2_41", "StatefulPartitionedCall/zeros_25"], "attr": {"Tindices": {"type": "DT_INT64"}, "T": {"type": "DT_INT64"}, "validate_indices": {"b": true}}}, {"name": "StatefulPartitionedCall/SparseToDense_36", "op": "SparseToDense", "input": ["StatefulPartitionedCall/ExpandDims_10", "StatefulPartitionedCall/Cast_38", "StatefulPartitionedCall/SelectV2_42", "StatefulPartitionedCall/Const_41"], "attr": {"Tindices": {"type": "DT_INT64"}, "T": {"type": "DT_INT64"}, "validate_indices": {"b": true}}}, {"name": "StatefulPartitionedCall/SparseToDense_37", "op": "SparseToDense", "input": ["StatefulPartitionedCall/ExpandDims_11", "StatefulPartitionedCall/Cast_40", "StatefulPartitionedCall/SelectV2_45", "StatefulPartitionedCall/zeros_26"], "attr": {"Tindices": {"type": "DT_INT64"}, "T": {"type": "DT_INT64"}, "validate_indices": {"b": true}}}, {"name": "StatefulPartitionedCall/SparseToDense_38", "op": "SparseToDense", "input": ["StatefulPartitionedCall/ExpandDims_11", "StatefulPartitionedCall/Cast_40", "StatefulPartitionedCall/SelectV2_46", "StatefulPartitionedCall/Const_43"], "attr": {"Tindices": {"type": "DT_INT64"}, "T": {"type": "DT_INT64"}, "validate_indices": {"b": true}}}, {"name": "StatefulPartitionedCall/cond_3/switch_pred/_88", "op": "Switch", "input": ["StatefulPartitionedCall/GreaterEqual_4", "StatefulPartitionedCall/GreaterEqual_4"], "attr": {"T": {"type": "DT_BOOL"}}}, {"name": "StatefulPartitionedCall/cond_3/StatefulPartitionedCall/Const_45/_93", "op": "Switch", "input": ["StatefulPartitionedCall/Const_45", "StatefulPartitionedCall/GreaterEqual_4"], "attr": {"T": {"type": "DT_INT64"}}}, {"name": "StatefulPartitionedCall/cond_3/StatefulPartitionedCall/Const_46/_92", "op": "Switch", "input": ["StatefulPartitionedCall/Const_46", "StatefulPartitionedCall/GreaterEqual_4"], "attr": {"T": {"type": "DT_INT64"}}}, {"name": "StatefulPartitionedCall/SparseToDense_21", "op": "SparseToDense", "input": ["StatefulPartitionedCall/Where_9", "StatefulPartitionedCall/Cast_23", "StatefulPartitionedCall/GatherV2_9", "StatefulPartitionedCall/zeros_15"], "attr": {"Tindices": {"type": "DT_INT64"}, "T": {"type": "DT_INT64"}, "validate_indices": {"b": true}}}, {"name": "StatefulPartitionedCall/SparseToDense_20", "op": "SparseToDense", "input": ["StatefulPartitionedCall/Where_8", "StatefulPartitionedCall/Cast_22", "StatefulPartitionedCall/GatherV2_8", "StatefulPartitionedCall/zeros_14"], "attr": {"Tindices": {"type": "DT_INT64"}, "T": {"type": "DT_INT64"}, "validate_indices": {"b": true}}}, {"name": "StatefulPartitionedCall/SparseToDense_23", "op": "SparseToDense", "input": ["StatefulPartitionedCall/ExpandDims_6", "StatefulPartitionedCall/Cast_26", "StatefulPartitionedCall/SelectV2_25", "StatefulPartitionedCall/zeros_17"], "attr": {"Tindices": {"type": "DT_INT64"}, "T": {"type": "DT_INT64"}, "validate_indices": {"b": true}}}, {"name": "StatefulPartitionedCall/SparseToDense_24", "op": "SparseToDense", "input": ["StatefulPartitionedCall/ExpandDims_6", "StatefulPartitionedCall/Cast_26", "StatefulPartitionedCall/SelectV2_26", "StatefulPartitionedCall/Const_27"], "attr": {"Tindices": {"type": "DT_INT64"}, "T": {"type": "DT_INT64"}, "validate_indices": {"b": true}}}, {"name": "StatefulPartitionedCall/SparseToDense_25", "op": "SparseToDense", "input": ["StatefulPartitionedCall/ExpandDims_7", "StatefulPartitionedCall/Cast_28", "StatefulPartitionedCall/SelectV2_29", "StatefulPartitionedCall/zeros_18"], "attr": {"Tindices": {"type": "DT_INT64"}, "T": {"type": "DT_INT64"}, "validate_indices": {"b": true}}}, {"name": "StatefulPartitionedCall/SparseToDense_26", "op": "SparseToDense", "input": ["StatefulPartitionedCall/ExpandDims_7", "StatefulPartitionedCall/Cast_28", "StatefulPartitionedCall/SelectV2_30", "StatefulPartitionedCall/Const_29"], "attr": {"Tindices": {"type": "DT_INT64"}, "T": {"type": "DT_INT64"}, "validate_indices": {"b": true}}}, {"name": "StatefulPartitionedCall/SparseToDense_27", "op": "SparseToDense", "input": ["StatefulPartitionedCall/ExpandDims_8", "StatefulPartitionedCall/Cast_30", "StatefulPartitionedCall/SelectV2_33", "StatefulPartitionedCall/zeros_19"], "attr": {"Tindices": {"type": "DT_INT64"}, "T": {"type": "DT_INT64"}, "validate_indices": {"b": true}}}, {"name": "StatefulPartitionedCall/SparseToDense_28", "op": "SparseToDense", "input": ["StatefulPartitionedCall/ExpandDims_8", "StatefulPartitionedCall/Cast_30", "StatefulPartitionedCall/SelectV2_34", "StatefulPartitionedCall/Const_31"], "attr": {"Tindices": {"type": "DT_INT64"}, "T": {"type": "DT_INT64"}, "validate_indices": {"b": true}}}, {"name": "StatefulPartitionedCall/cond_2/switch_pred/_77", "op": "Switch", "input": ["StatefulPartitionedCall/GreaterEqual_3", "StatefulPartitionedCall/GreaterEqual_3"], "attr": {"T": {"type": "DT_BOOL"}}}, {"name": "StatefulPartitionedCall/cond_2/StatefulPartitionedCall/Const_33/_82", "op": "Switch", "input": ["StatefulPartitionedCall/Const_33", "StatefulPartitionedCall/GreaterEqual_3"], "attr": {"T": {"type": "DT_INT64"}}}, {"name": "StatefulPartitionedCall/cond_2/StatefulPartitionedCall/Const_34/_81", "op": "Switch", "input": ["StatefulPartitionedCall/Const_34", "StatefulPartitionedCall/GreaterEqual_3"], "attr": {"T": {"type": "DT_INT64"}}}, {"name": "StatefulPartitionedCall/SparseToDense_11", "op": "SparseToDense", "input": ["StatefulPartitionedCall/Where_5", "StatefulPartitionedCall/Cast_13", "StatefulPartitionedCall/GatherV2_5", "StatefulPartitionedCall/zeros_8"], "attr": {"Tindices": {"type": "DT_INT64"}, "T": {"type": "DT_INT64"}, "validate_indices": {"b": true}}}, {"name": "StatefulPartitionedCall/SparseToDense_10", "op": "SparseToDense", "input": ["StatefulPartitionedCall/Where_4", "StatefulPartitionedCall/Cast_12", "StatefulPartitionedCall/GatherV2_4", "StatefulPartitionedCall/zeros_7"], "attr": {"Tindices": {"type": "DT_INT64"}, "T": {"type": "DT_INT64"}, "validate_indices": {"b": true}}}, {"name": "StatefulPartitionedCall/SparseToDense_13", "op": "SparseToDense", "input": ["StatefulPartitionedCall/ExpandDims_3", "StatefulPartitionedCall/Cast_16", "StatefulPartitionedCall/SelectV2_13", "StatefulPartitionedCall/zeros_10"], "attr": {"Tindices": {"type": "DT_INT64"}, "T": {"type": "DT_INT64"}, "validate_indices": {"b": true}}}, {"name": "StatefulPartitionedCall/SparseToDense_14", "op": "SparseToDense", "input": ["StatefulPartitionedCall/ExpandDims_3", "StatefulPartitionedCall/Cast_16", "StatefulPartitionedCall/SelectV2_14", "StatefulPartitionedCall/Const_15"], "attr": {"Tindices": {"type": "DT_INT64"}, "T": {"type": "DT_INT64"}, "validate_indices": {"b": true}}}, {"name": "StatefulPartitionedCall/SparseToDense_15", "op": "SparseToDense", "input": ["StatefulPartitionedCall/ExpandDims_4", "StatefulPartitionedCall/Cast_18", "StatefulPartitionedCall/SelectV2_17", "StatefulPartitionedCall/zeros_11"], "attr": {"Tindices": {"type": "DT_INT64"}, "T": {"type": "DT_INT64"}, "validate_indices": {"b": true}}}, {"name": "StatefulPartitionedCall/SparseToDense_16", "op": "SparseToDense", "input": ["StatefulPartitionedCall/ExpandDims_4", "StatefulPartitionedCall/Cast_18", "StatefulPartitionedCall/SelectV2_18", "StatefulPartitionedCall/Const_17"], "attr": {"Tindices": {"type": "DT_INT64"}, "T": {"type": "DT_INT64"}, "validate_indices": {"b": true}}}, {"name": "StatefulPartitionedCall/SparseToDense_17", "op": "SparseToDense", "input": ["StatefulPartitionedCall/ExpandDims_5", "StatefulPartitionedCall/Cast_20", "StatefulPartitionedCall/SelectV2_21", "StatefulPartitionedCall/zeros_12"], "attr": {"Tindices": {"type": "DT_INT64"}, "T": {"type": "DT_INT64"}, "validate_indices": {"b": true}}}, {"name": "StatefulPartitionedCall/SparseToDense_18", "op": "SparseToDense", "input": ["StatefulPartitionedCall/ExpandDims_5", "StatefulPartitionedCall/Cast_20", "StatefulPartitionedCall/SelectV2_22", "StatefulPartitionedCall/Const_19"], "attr": {"Tindices": {"type": "DT_INT64"}, "T": {"type": "DT_INT64"}, "validate_indices": {"b": true}}}, {"name": "StatefulPartitionedCall/cond_1/switch_pred/_66", "op": "Switch", "input": ["StatefulPartitionedCall/GreaterEqual_2", "StatefulPartitionedCall/GreaterEqual_2"], "attr": {"T": {"type": "DT_BOOL"}}}, {"name": "StatefulPartitionedCall/cond_1/StatefulPartitionedCall/Const_21/_71", "op": "Switch", "input": ["StatefulPartitionedCall/Const_21", "StatefulPartitionedCall/GreaterEqual_2"], "attr": {"T": {"type": "DT_INT64"}}}, {"name": "StatefulPartitionedCall/cond_1/StatefulPartitionedCall/Const_22/_70", "op": "Switch", "input": ["StatefulPartitionedCall/Const_22", "StatefulPartitionedCall/GreaterEqual_2"], "attr": {"T": {"type": "DT_INT64"}}}, {"name": "StatefulPartitionedCall/SparseToDense_1", "op": "SparseToDense", "input": ["StatefulPartitionedCall/Where_1", "StatefulPartitionedCall/Cast_3", "StatefulPartitionedCall/GatherV2_1", "StatefulPartitionedCall/zeros_1"], "attr": {"Tindices": {"type": "DT_INT64"}, "T": {"type": "DT_INT64"}, "validate_indices": {"b": true}}}, {"name": "StatefulPartitionedCall/SparseToDense", "op": "SparseToDense", "input": ["StatefulPartitionedCall/Where", "StatefulPartitionedCall/Cast_2", "StatefulPartitionedCall/GatherV2", "StatefulPartitionedCall/zeros"], "attr": {"Tindices": {"type": "DT_INT64"}, "T": {"type": "DT_INT64"}, "validate_indices": {"b": true}}}, {"name": "StatefulPartitionedCall/SparseToDense_3", "op": "SparseToDense", "input": ["StatefulPartitionedCall/ExpandDims", "StatefulPartitionedCall/Cast_6", "StatefulPartitionedCall/SelectV2_1", "StatefulPartitionedCall/zeros_3"], "attr": {"Tindices": {"type": "DT_INT64"}, "T": {"type": "DT_INT64"}, "validate_indices": {"b": true}}}, {"name": "StatefulPartitionedCall/SparseToDense_4", "op": "SparseToDense", "input": ["StatefulPartitionedCall/ExpandDims", "StatefulPartitionedCall/Cast_6", "StatefulPartitionedCall/SelectV2_2", "StatefulPartitionedCall/Const_3"], "attr": {"Tindices": {"type": "DT_INT64"}, "T": {"type": "DT_INT64"}, "validate_indices": {"b": true}}}, {"name": "StatefulPartitionedCall/SparseToDense_5", "op": "SparseToDense", "input": ["StatefulPartitionedCall/ExpandDims_1", "StatefulPartitionedCall/Cast_8", "StatefulPartitionedCall/SelectV2_5", "StatefulPartitionedCall/zeros_4"], "attr": {"Tindices": {"type": "DT_INT64"}, "T": {"type": "DT_INT64"}, "validate_indices": {"b": true}}}, {"name": "StatefulPartitionedCall/SparseToDense_6", "op": "SparseToDense", "input": ["StatefulPartitionedCall/ExpandDims_1", "StatefulPartitionedCall/Cast_8", "StatefulPartitionedCall/SelectV2_6", "StatefulPartitionedCall/Const_5"], "attr": {"Tindices": {"type": "DT_INT64"}, "T": {"type": "DT_INT64"}, "validate_indices": {"b": true}}}, {"name": "StatefulPartitionedCall/SparseToDense_7", "op": "SparseToDense", "input": ["StatefulPartitionedCall/ExpandDims_2", "StatefulPartitionedCall/Cast_10", "StatefulPartitionedCall/SelectV2_9", "StatefulPartitionedCall/zeros_5"], "attr": {"Tindices": {"type": "DT_INT64"}, "T": {"type": "DT_INT64"}, "validate_indices": {"b": true}}}, {"name": "StatefulPartitionedCall/SparseToDense_8", "op": "SparseToDense", "input": ["StatefulPartitionedCall/ExpandDims_2", "StatefulPartitionedCall/Cast_10", "StatefulPartitionedCall/SelectV2_10", "StatefulPartitionedCall/Const_7"], "attr": {"Tindices": {"type": "DT_INT64"}, "T": {"type": "DT_INT64"}, "validate_indices": {"b": true}}}, {"name": "StatefulPartitionedCall/cond/switch_pred/_55", "op": "Switch", "input": ["StatefulPartitionedCall/GreaterEqual_1", "StatefulPartitionedCall/GreaterEqual_1"], "attr": {"T": {"type": "DT_BOOL"}}}, {"name": "StatefulPartitionedCall/cond/StatefulPartitionedCall/Const_9/_60", "op": "Switch", "input": ["StatefulPartitionedCall/Const_9", "StatefulPartitionedCall/GreaterEqual_1"], "attr": {"T": {"type": "DT_INT64"}}}, {"name": "StatefulPartitionedCall/cond/StatefulPartitionedCall/Const_10/_59", "op": "Switch", "input": ["StatefulPartitionedCall/Const_10", "StatefulPartitionedCall/GreaterEqual_1"], "attr": {"T": {"type": "DT_INT64"}}}, {"name": "StatefulPartitionedCall/SparseToDense_2", "op": "SparseToDense", "input": ["StatefulPartitionedCall/Where_2", "StatefulPartitionedCall/Cast_4", "StatefulPartitionedCall/GatherV2_2", "StatefulPartitionedCall/zeros_2"], "attr": {"Tindices": {"type": "DT_INT64"}, "T": {"type": "DT_INT64"}, "validate_indices": {"b": true}}}, {"name": "StatefulPartitionedCall/SparseToDense_9", "op": "SparseToDense", "input": ["StatefulPartitionedCall/Where_3", "StatefulPartitionedCall/Cast_11", "StatefulPartitionedCall/GatherV2_3", "StatefulPartitionedCall/zeros_6"], "attr": {"Tindices": {"type": "DT_INT64"}, "T": {"type": "DT_INT64"}, "validate_indices": {"b": true}}}, {"name": "StatefulPartitionedCall/SparseToDense_12", "op": "SparseToDense", "input": ["StatefulPartitionedCall/Where_6", "StatefulPartitionedCall/Cast_14", "StatefulPartitionedCall/GatherV2_6", "StatefulPartitionedCall/zeros_9"], "attr": {"Tindices": {"type": "DT_INT64"}, "T": {"type": "DT_INT64"}, "validate_indices": {"b": true}}}, {"name": "StatefulPartitionedCall/SparseToDense_19", "op": "SparseToDense", "input": ["StatefulPartitionedCall/Where_7", "StatefulPartitionedCall/Cast_21", "StatefulPartitionedCall/GatherV2_7", "StatefulPartitionedCall/zeros_13"], "attr": {"Tindices": {"type": "DT_INT64"}, "T": {"type": "DT_INT64"}, "validate_indices": {"b": true}}}, {"name": "StatefulPartitionedCall/SparseToDense_22", "op": "SparseToDense", "input": ["StatefulPartitionedCall/Where_10", "StatefulPartitionedCall/Cast_24", "StatefulPartitionedCall/GatherV2_10", "StatefulPartitionedCall/zeros_16"], "attr": {"Tindices": {"type": "DT_INT64"}, "T": {"type": "DT_INT64"}, "validate_indices": {"b": true}}}, {"name": "StatefulPartitionedCall/SparseToDense_29", "op": "SparseToDense", "input": ["StatefulPartitionedCall/Where_11", "StatefulPartitionedCall/Cast_31", "StatefulPartitionedCall/GatherV2_11", "StatefulPartitionedCall/zeros_20"], "attr": {"Tindices": {"type": "DT_INT64"}, "T": {"type": "DT_INT64"}, "validate_indices": {"b": true}}}, {"name": "StatefulPartitionedCall/SparseToDense_32", "op": "SparseToDense", "input": ["StatefulPartitionedCall/Where_14", "StatefulPartitionedCall/Cast_34", "StatefulPartitionedCall/GatherV2_14", "StatefulPartitionedCall/zeros_23"], "attr": {"Tindices": {"type": "DT_INT64"}, "T": {"type": "DT_INT64"}, "validate_indices": {"b": true}}}, {"name": "StatefulPartitionedCall/SparseToDense_39", "op": "SparseToDense", "input": ["StatefulPartitionedCall/Where_15", "StatefulPartitionedCall/Cast_41", "StatefulPartitionedCall/GatherV2_15", "StatefulPartitionedCall/zeros_27"], "attr": {"Tindices": {"type": "DT_INT64"}, "T": {"type": "DT_INT64"}, "validate_indices": {"b": true}}}, {"name": "StatefulPartitionedCall/SparseToDense_42", "op": "SparseToDense", "input": ["StatefulPartitionedCall/Where_18", "StatefulPartitionedCall/Cast_44", "StatefulPartitionedCall/GatherV2_18", "StatefulPartitionedCall/zeros_30"], "attr": {"Tindices": {"type": "DT_INT64"}, "T": {"type": "DT_INT64"}, "validate_indices": {"b": true}}}, {"name": "StatefulPartitionedCall/SparseToDense_49", "op": "SparseToDense", "input": ["StatefulPartitionedCall/Where_19", "StatefulPartitionedCall/Cast_51", "StatefulPartitionedCall/GatherV2_19", "StatefulPartitionedCall/zeros_34"], "attr": {"Tindices": {"type": "DT_INT64"}, "T": {"type": "DT_INT64"}, "validate_indices": {"b": true}}}, {"name": "StatefulPartitionedCall/SparseToDense_52", "op": "SparseToDense", "input": ["StatefulPartitionedCall/Where_22", "StatefulPartitionedCall/Cast_54", "StatefulPartitionedCall/GatherV2_22", "StatefulPartitionedCall/zeros_37"], "attr": {"Tindices": {"type": "DT_INT64"}, "T": {"type": "DT_INT64"}, "validate_indices": {"b": true}}}, {"name": "StatefulPartitionedCall/SparseToDense_59", "op": "SparseToDense", "input": ["StatefulPartitionedCall/Where_23", "StatefulPartitionedCall/Cast_61", "StatefulPartitionedCall/GatherV2_23", "StatefulPartitionedCall/zeros_41"], "attr": {"Tindices": {"type": "DT_INT64"}, "T": {"type": "DT_INT64"}, "validate_indices": {"b": true}}}, {"name": "StatefulPartitionedCall/assert_equal_3/Assert/AssertGuard/StatefulPartitionedCall/assert_equal_3/All/_124", "op": "Switch", "input": ["StatefulPartitionedCall/assert_equal_3/All", "StatefulPartitionedCall/assert_equal_3/All"], "attr": {"T": {"type": "DT_BOOL"}}}, {"name": "StatefulPartitionedCall/assert_equal_3/Assert/AssertGuard/StatefulPartitionedCall/LogicalAnd_1/_125", "op": "Switch", "input": ["StatefulPartitionedCall/LogicalAnd_1", "StatefulPartitionedCall/assert_equal_3/All"], "attr": {"T": {"type": "DT_BOOL"}}}, {"name": "StatefulPartitionedCall/assert_equal_3/Assert/AssertGuard/StatefulPartitionedCall/assert_equal_3/y/_126", "op": "Switch", "input": ["StatefulPartitionedCall/assert_equal_3/y", "StatefulPartitionedCall/assert_equal_3/All"], "attr": {"T": {"type": "DT_BOOL"}}}, {"name": "StatefulPartitionedCall/GreaterEqual", "op": "GreaterEqual", "input": ["input", "StatefulPartitionedCall/Neg"], "attr": {"T": {"type": "DT_INT64"}}}, {"name": "StatefulPartitionedCall/Less", "op": "Less", "input": ["input", "StatefulPartitionedCall/strided_slice"], "attr": {"T": {"type": "DT_INT64"}}}, {"name": "StatefulPartitionedCall/add_67", "op": "AddV2", "input": ["StatefulPartitionedCall/onnx_tf_prefix_/h.5/attn/Constant_2", "StatefulPartitionedCall/SparseToDense_51"], "attr": {"T": {"type": "DT_INT64"}}}, {"name": "StatefulPartitionedCall/add_66", "op": "AddV2", "input": ["StatefulPartitionedCall/onnx_tf_prefix_/h.5/attn/Constant_1", "StatefulPartitionedCall/SparseToDense_50"], "attr": {"T": {"type": "DT_INT64"}}}, {"name": "StatefulPartitionedCall/Equal_38", "op": "Equal", "input": ["StatefulPartitionedCall/SparseToDense_54", "StatefulPartitionedCall/Const_64"], "attr": {"T": {"type": "DT_INT64"}, "incompatible_shape_error": {"b": true}}}, {"name": "StatefulPartitionedCall/Equal_39", "op": "Equal", "input": ["StatefulPartitionedCall/SparseToDense_56", "StatefulPartitionedCall/Const_66"], "attr": {"T": {"type": "DT_INT64"}, "incompatible_shape_error": {"b": true}}}, {"name": "StatefulPartitionedCall/Equal_40", "op": "Equal", "input": ["StatefulPartitionedCall/SparseToDense_58", "StatefulPartitionedCall/Const_68"], "attr": {"T": {"type": "DT_INT64"}, "incompatible_shape_error": {"b": true}}}, {"name": "StatefulPartitionedCall/cond_5/pivot_f/_111", "op": "Identity", "input": ["StatefulPartitionedCall/cond_5/switch_pred/_110"], "attr": {"_has_manual_control_dependencies": {"b": true}, "T": {"type": "DT_BOOL"}}}, {"name": "StatefulPartitionedCall/add_54", "op": "AddV2", "input": ["StatefulPartitionedCall/onnx_tf_prefix_/h.4/attn/Constant_2", "StatefulPartitionedCall/SparseToDense_41"], "attr": {"T": {"type": "DT_INT64"}}}, {"name": "StatefulPartitionedCall/add_53", "op": "AddV2", "input": ["StatefulPartitionedCall/onnx_tf_prefix_/h.4/attn/Constant_1", "StatefulPartitionedCall/SparseToDense_40"], "attr": {"T": {"type": "DT_INT64"}}}, {"name": "StatefulPartitionedCall/Equal_31", "op": "Equal", "input": ["StatefulPartitionedCall/SparseToDense_44", "StatefulPartitionedCall/Const_52"], "attr": {"T": {"type": "DT_INT64"}, "incompatible_shape_error": {"b": true}}}, {"name": "StatefulPartitionedCall/Equal_32", "op": "Equal", "input": ["StatefulPartitionedCall/SparseToDense_46", "StatefulPartitionedCall/Const_54"], "attr": {"T": {"type": "DT_INT64"}, "incompatible_shape_error": {"b": true}}}, {"name": "StatefulPartitionedCall/Equal_33", "op": "Equal", "input": ["StatefulPartitionedCall/SparseToDense_48", "StatefulPartitionedCall/Const_56"], "attr": {"T": {"type": "DT_INT64"}, "incompatible_shape_error": {"b": true}}}, {"name": "StatefulPartitionedCall/cond_4/pivot_f/_100", "op": "Identity", "input": ["StatefulPartitionedCall/cond_4/switch_pred/_99"], "attr": {"_has_manual_control_dependencies": {"b": true}, "T": {"type": "DT_BOOL"}}}, {"name": "StatefulPartitionedCall/add_41", "op": "AddV2", "input": ["StatefulPartitionedCall/onnx_tf_prefix_/h.3/attn/Constant_2", "StatefulPartitionedCall/SparseToDense_31"], "attr": {"T": {"type": "DT_INT64"}}}, {"name": "StatefulPartitionedCall/add_40", "op": "AddV2", "input": ["StatefulPartitionedCall/onnx_tf_prefix_/h.3/attn/Constant_1", "StatefulPartitionedCall/SparseToDense_30"], "attr": {"T": {"type": "DT_INT64"}}}, {"name": "StatefulPartitionedCall/Equal_24", "op": "Equal", "input": ["StatefulPartitionedCall/SparseToDense_34", "StatefulPartitionedCall/Const_40"], "attr": {"T": {"type": "DT_INT64"}, "incompatible_shape_error": {"b": true}}}, {"name": "StatefulPartitionedCall/Equal_25", "op": "Equal", "input": ["StatefulPartitionedCall/SparseToDense_36", "StatefulPartitionedCall/Const_42"], "attr": {"T": {"type": "DT_INT64"}, "incompatible_shape_error": {"b": true}}}, {"name": "StatefulPartitionedCall/Equal_26", "op": "Equal", "input": ["StatefulPartitionedCall/SparseToDense_38", "StatefulPartitionedCall/Const_44"], "attr": {"T": {"type": "DT_INT64"}, "incompatible_shape_error": {"b": true}}}, {"name": "StatefulPartitionedCall/cond_3/pivot_f/_89", "op": "Identity", "input": ["StatefulPartitionedCall/cond_3/switch_pred/_88"], "attr": {"_has_manual_control_dependencies": {"b": true}, "T": {"type": "DT_BOOL"}}}, {"name": "StatefulPartitionedCall/add_28", "op": "AddV2", "input": ["StatefulPartitionedCall/onnx_tf_prefix_/h.2/attn/Constant_2", "StatefulPartitionedCall/SparseToDense_21"], "attr": {"T": {"type": "DT_INT64"}}}, {"name": "StatefulPartitionedCall/add_27", "op": "AddV2", "input": ["StatefulPartitionedCall/onnx_tf_prefix_/h.2/attn/Constant_1", "StatefulPartitionedCall/SparseToDense_20"], "attr": {"T": {"type": "DT_INT64"}}}, {"name": "StatefulPartitionedCall/Equal_17", "op": "Equal", "input": ["StatefulPartitionedCall/SparseToDense_24", "StatefulPartitionedCall/Const_28"], "attr": {"T": {"type": "DT_INT64"}, "incompatible_shape_error": {"b": true}}}, {"name": "StatefulPartitionedCall/Equal_18", "op": "Equal", "input": ["StatefulPartitionedCall/SparseToDense_26", "StatefulPartitionedCall/Const_30"], "attr": {"T": {"type": "DT_INT64"}, "incompatible_shape_error": {"b": true}}}, {"name": "StatefulPartitionedCall/Equal_19", "op": "Equal", "input": ["StatefulPartitionedCall/SparseToDense_28", "StatefulPartitionedCall/Const_32"], "attr": {"T": {"type": "DT_INT64"}, "incompatible_shape_error": {"b": true}}}, {"name": "StatefulPartitionedCall/cond_2/pivot_f/_78", "op": "Identity", "input": ["StatefulPartitionedCall/cond_2/switch_pred/_77"], "attr": {"_has_manual_control_dependencies": {"b": true}, "T": {"type": "DT_BOOL"}}}, {"name": "StatefulPartitionedCall/add_15", "op": "AddV2", "input": ["StatefulPartitionedCall/onnx_tf_prefix_/h.1/attn/Constant_2", "StatefulPartitionedCall/SparseToDense_11"], "attr": {"T": {"type": "DT_INT64"}}}, {"name": "StatefulPartitionedCall/add_14", "op": "AddV2", "input": ["StatefulPartitionedCall/onnx_tf_prefix_/h.1/attn/Constant_1", "StatefulPartitionedCall/SparseToDense_10"], "attr": {"T": {"type": "DT_INT64"}}}, {"name": "StatefulPartitionedCall/Equal_10", "op": "Equal", "input": ["StatefulPartitionedCall/SparseToDense_14", "StatefulPartitionedCall/Const_16"], "attr": {"T": {"type": "DT_INT64"}, "incompatible_shape_error": {"b": true}}}, {"name": "StatefulPartitionedCall/Equal_11", "op": "Equal", "input": ["StatefulPartitionedCall/SparseToDense_16", "StatefulPartitionedCall/Const_18"], "attr": {"T": {"type": "DT_INT64"}, "incompatible_shape_error": {"b": true}}}, {"name": "StatefulPartitionedCall/Equal_12", "op": "Equal", "input": ["StatefulPartitionedCall/SparseToDense_18", "StatefulPartitionedCall/Const_20"], "attr": {"T": {"type": "DT_INT64"}, "incompatible_shape_error": {"b": true}}}, {"name": "StatefulPartitionedCall/cond_1/pivot_f/_67", "op": "Identity", "input": ["StatefulPartitionedCall/cond_1/switch_pred/_66"], "attr": {"_has_manual_control_dependencies": {"b": true}, "T": {"type": "DT_BOOL"}}}, {"name": "StatefulPartitionedCall/add_2", "op": "AddV2", "input": ["StatefulPartitionedCall/onnx_tf_prefix_/h.0/attn/Constant_2", "StatefulPartitionedCall/SparseToDense_1"], "attr": {"T": {"type": "DT_INT64"}}}, {"name": "StatefulPartitionedCall/add_1", "op": "AddV2", "input": ["StatefulPartitionedCall/onnx_tf_prefix_/h.0/attn/Constant_1", "StatefulPartitionedCall/SparseToDense"], "attr": {"T": {"type": "DT_INT64"}}}, {"name": "StatefulPartitionedCall/Equal_3", "op": "Equal", "input": ["StatefulPartitionedCall/SparseToDense_4", "StatefulPartitionedCall/Const_4"], "attr": {"T": {"type": "DT_INT64"}, "incompatible_shape_error": {"b": true}}}, {"name": "StatefulPartitionedCall/Equal_4", "op": "Equal", "input": ["StatefulPartitionedCall/SparseToDense_6", "StatefulPartitionedCall/Const_6"], "attr": {"T": {"type": "DT_INT64"}, "incompatible_shape_error": {"b": true}}}, {"name": "StatefulPartitionedCall/Equal_5", "op": "Equal", "input": ["StatefulPartitionedCall/SparseToDense_8", "StatefulPartitionedCall/Const_8"], "attr": {"T": {"type": "DT_INT64"}, "incompatible_shape_error": {"b": true}}}, {"name": "StatefulPartitionedCall/cond/pivot_f/_56", "op": "Identity", "input": ["StatefulPartitionedCall/cond/switch_pred/_55"], "attr": {"_has_manual_control_dependencies": {"b": true}, "T": {"type": "DT_BOOL"}}}, {"name": "StatefulPartitionedCall/add_3", "op": "AddV2", "input": ["StatefulPartitionedCall/onnx_tf_prefix_/h.0/attn/Constant_3", "StatefulPartitionedCall/SparseToDense_2"], "attr": {"T": {"type": "DT_INT64"}}}, {"name": "StatefulPartitionedCall/add_13", "op": "AddV2", "input": ["StatefulPartitionedCall/onnx_tf_prefix_/h.0/attn/Constant_13", "StatefulPartitionedCall/SparseToDense_9"], "attr": {"T": {"type": "DT_INT64"}}}, {"name": "StatefulPartitionedCall/add_16", "op": "AddV2", "input": ["StatefulPartitionedCall/onnx_tf_prefix_/h.1/attn/Constant_3", "StatefulPartitionedCall/SparseToDense_12"], "attr": {"T": {"type": "DT_INT64"}}}, {"name": "StatefulPartitionedCall/add_26", "op": "AddV2", "input": ["StatefulPartitionedCall/onnx_tf_prefix_/h.1/attn/Constant_13", "StatefulPartitionedCall/SparseToDense_19"], "attr": {"T": {"type": "DT_INT64"}}}, {"name": "StatefulPartitionedCall/add_29", "op": "AddV2", "input": ["StatefulPartitionedCall/onnx_tf_prefix_/h.2/attn/Constant_3", "StatefulPartitionedCall/SparseToDense_22"], "attr": {"T": {"type": "DT_INT64"}}}, {"name": "StatefulPartitionedCall/add_39", "op": "AddV2", "input": ["StatefulPartitionedCall/onnx_tf_prefix_/h.2/attn/Constant_13", "StatefulPartitionedCall/SparseToDense_29"], "attr": {"T": {"type": "DT_INT64"}}}, {"name": "StatefulPartitionedCall/add_42", "op": "AddV2", "input": ["StatefulPartitionedCall/onnx_tf_prefix_/h.3/attn/Constant_3", "StatefulPartitionedCall/SparseToDense_32"], "attr": {"T": {"type": "DT_INT64"}}}, {"name": "StatefulPartitionedCall/add_52", "op": "AddV2", "input": ["StatefulPartitionedCall/onnx_tf_prefix_/h.3/attn/Constant_13", "StatefulPartitionedCall/SparseToDense_39"], "attr": {"T": {"type": "DT_INT64"}}}, {"name": "StatefulPartitionedCall/add_55", "op": "AddV2", "input": ["StatefulPartitionedCall/onnx_tf_prefix_/h.4/attn/Constant_3", "StatefulPartitionedCall/SparseToDense_42"], "attr": {"T": {"type": "DT_INT64"}}}, {"name": "StatefulPartitionedCall/add_65", "op": "AddV2", "input": ["StatefulPartitionedCall/onnx_tf_prefix_/h.4/attn/Constant_13", "StatefulPartitionedCall/SparseToDense_49"], "attr": {"T": {"type": "DT_INT64"}}}, {"name": "StatefulPartitionedCall/add_68", "op": "AddV2", "input": ["StatefulPartitionedCall/onnx_tf_prefix_/h.5/attn/Constant_3", "StatefulPartitionedCall/SparseToDense_52"], "attr": {"T": {"type": "DT_INT64"}}}, {"name": "StatefulPartitionedCall/add_78", "op": "AddV2", "input": ["StatefulPartitionedCall/onnx_tf_prefix_/h.5/attn/Constant_13", "StatefulPartitionedCall/SparseToDense_59"], "attr": {"T": {"type": "DT_INT64"}}}, {"name": "StatefulPartitionedCall/LogicalAnd", "op": "LogicalAnd", "input": ["StatefulPartitionedCall/GreaterEqual", "StatefulPartitionedCall/Less"]}, {"name": "StatefulPartitionedCall/SelectV2_63", "op": "SelectV2", "input": ["StatefulPartitionedCall/Equal_38", "StatefulPartitionedCall/Shape_76", "StatefulPartitionedCall/SparseToDense_54"], "attr": {"T": {"type": "DT_INT64"}}}, {"name": "StatefulPartitionedCall/SelectV2_67", "op": "SelectV2", "input": ["StatefulPartitionedCall/Equal_39", "StatefulPartitionedCall/Shape_78", "StatefulPartitionedCall/SparseToDense_56"], "attr": {"T": {"type": "DT_INT64"}}}, {"name": "StatefulPartitionedCall/SelectV2_71", "op": "SelectV2", "input": ["StatefulPartitionedCall/Equal_40", "StatefulPartitionedCall/Shape_80", "StatefulPartitionedCall/SparseToDense_58"], "attr": {"T": {"type": "DT_INT64"}}}, {"name": "StatefulPartitionedCall/cond_5/else/_109/cond_5/sub/x", "op": "Const", "input": ["^StatefulPartitionedCall/cond_5/pivot_f/_111"], "attr": {"value": {"tensor": {"dtype": "DT_INT64", "tensorShape": {}}}, "dtype": {"type": "DT_INT64"}}}, {"name": "StatefulPartitionedCall/SelectV2_51", "op": "SelectV2", "input": ["StatefulPartitionedCall/Equal_31", "StatefulPartitionedCall/Shape_62", "StatefulPartitionedCall/SparseToDense_44"], "attr": {"T": {"type": "DT_INT64"}}}, {"name": "StatefulPartitionedCall/SelectV2_55", "op": "SelectV2", "input": ["StatefulPartitionedCall/Equal_32", "StatefulPartitionedCall/Shape_64", "StatefulPartitionedCall/SparseToDense_46"], "attr": {"T": {"type": "DT_INT64"}}}, {"name": "StatefulPartitionedCall/SelectV2_59", "op": "SelectV2", "input": ["StatefulPartitionedCall/Equal_33", "StatefulPartitionedCall/Shape_66", "StatefulPartitionedCall/SparseToDense_48"], "attr": {"T": {"type": "DT_INT64"}}}, {"name": "StatefulPartitionedCall/cond_4/else/_98/cond_4/sub/x", "op": "Const", "input": ["^StatefulPartitionedCall/cond_4/pivot_f/_100"], "attr": {"value": {"tensor": {"dtype": "DT_INT64", "tensorShape": {}}}, "dtype": {"type": "DT_INT64"}}}, {"name": "StatefulPartitionedCall/SelectV2_39", "op": "SelectV2", "input": ["StatefulPartitionedCall/Equal_24", "StatefulPartitionedCall/Shape_48", "StatefulPartitionedCall/SparseToDense_34"], "attr": {"T": {"type": "DT_INT64"}}}, {"name": "StatefulPartitionedCall/SelectV2_43", "op": "SelectV2", "input": ["StatefulPartitionedCall/Equal_25", "StatefulPartitionedCall/Shape_50", "StatefulPartitionedCall/SparseToDense_36"], "attr": {"T": {"type": "DT_INT64"}}}, {"name": "StatefulPartitionedCall/SelectV2_47", "op": "SelectV2", "input": ["StatefulPartitionedCall/Equal_26", "StatefulPartitionedCall/Shape_52", "StatefulPartitionedCall/SparseToDense_38"], "attr": {"T": {"type": "DT_INT64"}}}, {"name": "StatefulPartitionedCall/cond_3/else/_87/cond_3/sub/x", "op": "Const", "input": ["^StatefulPartitionedCall/cond_3/pivot_f/_89"], "attr": {"value": {"tensor": {"dtype": "DT_INT64", "tensorShape": {}}}, "dtype": {"type": "DT_INT64"}}}, {"name": "StatefulPartitionedCall/SelectV2_27", "op": "SelectV2", "input": ["StatefulPartitionedCall/Equal_17", "StatefulPartitionedCall/Shape_34", "StatefulPartitionedCall/SparseToDense_24"], "attr": {"T": {"type": "DT_INT64"}}}, {"name": "StatefulPartitionedCall/SelectV2_31", "op": "SelectV2", "input": ["StatefulPartitionedCall/Equal_18", "StatefulPartitionedCall/Shape_36", "StatefulPartitionedCall/SparseToDense_26"], "attr": {"T": {"type": "DT_INT64"}}}, {"name": "StatefulPartitionedCall/SelectV2_35", "op": "SelectV2", "input": ["StatefulPartitionedCall/Equal_19", "StatefulPartitionedCall/Shape_38", "StatefulPartitionedCall/SparseToDense_28"], "attr": {"T": {"type": "DT_INT64"}}}, {"name": "StatefulPartitionedCall/cond_2/else/_76/cond_2/sub/x", "op": "Const", "input": ["^StatefulPartitionedCall/cond_2/pivot_f/_78"], "attr": {"value": {"tensor": {"dtype": "DT_INT64", "tensorShape": {}}}, "dtype": {"type": "DT_INT64"}}}, {"name": "StatefulPartitionedCall/SelectV2_15", "op": "SelectV2", "input": ["StatefulPartitionedCall/Equal_10", "StatefulPartitionedCall/Shape_20", "StatefulPartitionedCall/SparseToDense_14"], "attr": {"T": {"type": "DT_INT64"}}}, {"name": "StatefulPartitionedCall/SelectV2_19", "op": "SelectV2", "input": ["StatefulPartitionedCall/Equal_11", "StatefulPartitionedCall/Shape_22", "StatefulPartitionedCall/SparseToDense_16"], "attr": {"T": {"type": "DT_INT64"}}}, {"name": "StatefulPartitionedCall/SelectV2_23", "op": "SelectV2", "input": ["StatefulPartitionedCall/Equal_12", "StatefulPartitionedCall/Shape_24", "StatefulPartitionedCall/SparseToDense_18"], "attr": {"T": {"type": "DT_INT64"}}}, {"name": "StatefulPartitionedCall/cond_1/else/_65/cond_1/sub/x", "op": "Const", "input": ["^StatefulPartitionedCall/cond_1/pivot_f/_67"], "attr": {"value": {"tensor": {"dtype": "DT_INT64", "tensorShape": {}}}, "dtype": {"type": "DT_INT64"}}}, {"name": "StatefulPartitionedCall/SelectV2_3", "op": "SelectV2", "input": ["StatefulPartitionedCall/Equal_3", "StatefulPartitionedCall/Shape_6", "StatefulPartitionedCall/SparseToDense_4"], "attr": {"T": {"type": "DT_INT64"}}}, {"name": "StatefulPartitionedCall/SelectV2_7", "op": "SelectV2", "input": ["StatefulPartitionedCall/Equal_4", "StatefulPartitionedCall/Shape_8", "StatefulPartitionedCall/SparseToDense_6"], "attr": {"T": {"type": "DT_INT64"}}}, {"name": "StatefulPartitionedCall/SelectV2_11", "op": "SelectV2", "input": ["StatefulPartitionedCall/Equal_5", "StatefulPartitionedCall/Shape_10", "StatefulPartitionedCall/SparseToDense_8"], "attr": {"T": {"type": "DT_INT64"}}}, {"name": "StatefulPartitionedCall/cond/else/_54/cond/sub/x", "op": "Const", "input": ["^StatefulPartitionedCall/cond/pivot_f/_56"], "attr": {"value": {"tensor": {"dtype": "DT_INT64", "tensorShape": {}}}, "dtype": {"type": "DT_INT64"}}}, {"name": "StatefulPartitionedCall/assert_equal_1/Equal", "op": "Equal", "input": ["StatefulPartitionedCall/LogicalAnd", "StatefulPartitionedCall/assert_equal_1/y"], "attr": {"T": {"type": "DT_BOOL"}, "incompatible_shape_error": {"b": true}}}, {"name": "StatefulPartitionedCall/onnx_tf_prefix_/h.5/attn/Slice", "op": "StridedSlice", "input": ["StatefulPartitionedCall/onnx_tf_prefix_/h.5/attn/Shape", "StatefulPartitionedCall/SparseToDense_53", "StatefulPartitionedCall/SelectV2_63", "StatefulPartitionedCall/ones_20"], "attr": {"shrink_axis_mask": {"i": "0"}, "Index": {"type": "DT_INT64"}, "new_axis_mask": {"i": "0"}, "begin_mask": {"i": "0"}, "T": {"type": "DT_INT64"}, "end_mask": {"i": "0"}, "ellipsis_mask": {"i": "0"}}}, {"name": "StatefulPartitionedCall/onnx_tf_prefix_/h.5/attn/Slice_1", "op": "StridedSlice", "input": ["StatefulPartitionedCall/onnx_tf_prefix_/h.5/attn/Shape_1", "StatefulPartitionedCall/SparseToDense_55", "StatefulPartitionedCall/SelectV2_67", "StatefulPartitionedCall/ones_21"], "attr": {"shrink_axis_mask": {"i": "0"}, "new_axis_mask": {"i": "0"}, "Index": {"type": "DT_INT64"}, "begin_mask": {"i": "0"}, "end_mask": {"i": "0"}, "T": {"type": "DT_INT64"}, "ellipsis_mask": {"i": "0"}}}, {"name": "StatefulPartitionedCall/onnx_tf_prefix_/h.5/attn/Slice_2", "op": "StridedSlice", "input": ["StatefulPartitionedCall/onnx_tf_prefix_/h.5/attn/Shape_2", "StatefulPartitionedCall/SparseToDense_57", "StatefulPartitionedCall/SelectV2_71", "StatefulPartitionedCall/ones_22"], "attr": {"shrink_axis_mask": {"i": "0"}, "Index": {"type": "DT_INT64"}, "new_axis_mask": {"i": "0"}, "begin_mask": {"i": "0"}, "T": {"type": "DT_INT64"}, "end_mask": {"i": "0"}, "ellipsis_mask": {"i": "0"}}}, {"name": "StatefulPartitionedCall/cond_5/else/_109/cond_5/sub", "op": "Sub", "input": ["StatefulPartitionedCall/cond_5/else/_109/cond_5/sub/x", "StatefulPartitionedCall/cond_5/StatefulPartitionedCall/Const_69/_115"], "attr": {"T": {"type": "DT_INT64"}}}, {"name": "StatefulPartitionedCall/onnx_tf_prefix_/h.4/attn/Slice", "op": "StridedSlice", "input": ["StatefulPartitionedCall/onnx_tf_prefix_/h.4/attn/Shape", "StatefulPartitionedCall/SparseToDense_43", "StatefulPartitionedCall/SelectV2_51", "StatefulPartitionedCall/ones_16"], "attr": {"shrink_axis_mask": {"i": "0"}, "Index": {"type": "DT_INT64"}, "new_axis_mask": {"i": "0"}, "begin_mask": {"i": "0"}, "end_mask": {"i": "0"}, "T": {"type": "DT_INT64"}, "ellipsis_mask": {"i": "0"}}}, {"name": "StatefulPartitionedCall/onnx_tf_prefix_/h.4/attn/Slice_1", "op": "StridedSlice", "input": ["StatefulPartitionedCall/onnx_tf_prefix_/h.4/attn/Shape_1", "StatefulPartitionedCall/SparseToDense_45", "StatefulPartitionedCall/SelectV2_55", "StatefulPartitionedCall/ones_17"], "attr": {"shrink_axis_mask": {"i": "0"}, "Index": {"type": "DT_INT64"}, "new_axis_mask": {"i": "0"}, "begin_mask": {"i": "0"}, "T": {"type": "DT_INT64"}, "end_mask": {"i": "0"}, "ellipsis_mask": {"i": "0"}}}, {"name": "StatefulPartitionedCall/onnx_tf_prefix_/h.4/attn/Slice_2", "op": "StridedSlice", "input": ["StatefulPartitionedCall/onnx_tf_prefix_/h.4/attn/Shape_2", "StatefulPartitionedCall/SparseToDense_47", "StatefulPartitionedCall/SelectV2_59", "StatefulPartitionedCall/ones_18"], "attr": {"shrink_axis_mask": {"i": "0"}, "new_axis_mask": {"i": "0"}, "Index": {"type": "DT_INT64"}, "begin_mask": {"i": "0"}, "T": {"type": "DT_INT64"}, "end_mask": {"i": "0"}, "ellipsis_mask": {"i": "0"}}}, {"name": "StatefulPartitionedCall/cond_4/else/_98/cond_4/sub", "op": "Sub", "input": ["StatefulPartitionedCall/cond_4/else/_98/cond_4/sub/x", "StatefulPartitionedCall/cond_4/StatefulPartitionedCall/Const_57/_104"], "attr": {"T": {"type": "DT_INT64"}}}, {"name": "StatefulPartitionedCall/onnx_tf_prefix_/h.3/attn/Slice", "op": "StridedSlice", "input": ["StatefulPartitionedCall/onnx_tf_prefix_/h.3/attn/Shape", "StatefulPartitionedCall/SparseToDense_33", "StatefulPartitionedCall/SelectV2_39", "StatefulPartitionedCall/ones_12"], "attr": {"shrink_axis_mask": {"i": "0"}, "Index": {"type": "DT_INT64"}, "new_axis_mask": {"i": "0"}, "begin_mask": {"i": "0"}, "end_mask": {"i": "0"}, "T": {"type": "DT_INT64"}, "ellipsis_mask": {"i": "0"}}}, {"name": "StatefulPartitionedCall/onnx_tf_prefix_/h.3/attn/Slice_1", "op": "StridedSlice", "input": ["StatefulPartitionedCall/onnx_tf_prefix_/h.3/attn/Shape_1", "StatefulPartitionedCall/SparseToDense_35", "StatefulPartitionedCall/SelectV2_43", "StatefulPartitionedCall/ones_13"], "attr": {"shrink_axis_mask": {"i": "0"}, "new_axis_mask": {"i": "0"}, "Index": {"type": "DT_INT64"}, "begin_mask": {"i": "0"}, "T": {"type": "DT_INT64"}, "end_mask": {"i": "0"}, "ellipsis_mask": {"i": "0"}}}, {"name": "StatefulPartitionedCall/onnx_tf_prefix_/h.3/attn/Slice_2", "op": "StridedSlice", "input": ["StatefulPartitionedCall/onnx_tf_prefix_/h.3/attn/Shape_2", "StatefulPartitionedCall/SparseToDense_37", "StatefulPartitionedCall/SelectV2_47", "StatefulPartitionedCall/ones_14"], "attr": {"shrink_axis_mask": {"i": "0"}, "new_axis_mask": {"i": "0"}, "Index": {"type": "DT_INT64"}, "begin_mask": {"i": "0"}, "T": {"type": "DT_INT64"}, "end_mask": {"i": "0"}, "ellipsis_mask": {"i": "0"}}}, {"name": "StatefulPartitionedCall/cond_3/else/_87/cond_3/sub", "op": "Sub", "input": ["StatefulPartitionedCall/cond_3/else/_87/cond_3/sub/x", "StatefulPartitionedCall/cond_3/StatefulPartitionedCall/Const_45/_93"], "attr": {"T": {"type": "DT_INT64"}}}, {"name": "StatefulPartitionedCall/onnx_tf_prefix_/h.2/attn/Slice", "op": "StridedSlice", "input": ["StatefulPartitionedCall/onnx_tf_prefix_/h.2/attn/Shape", "StatefulPartitionedCall/SparseToDense_23", "StatefulPartitionedCall/SelectV2_27", "StatefulPartitionedCall/ones_8"], "attr": {"shrink_axis_mask": {"i": "0"}, "new_axis_mask": {"i": "0"}, "Index": {"type": "DT_INT64"}, "begin_mask": {"i": "0"}, "T": {"type": "DT_INT64"}, "end_mask": {"i": "0"}, "ellipsis_mask": {"i": "0"}}}, {"name": "StatefulPartitionedCall/onnx_tf_prefix_/h.2/attn/Slice_1", "op": "StridedSlice", "input": ["StatefulPartitionedCall/onnx_tf_prefix_/h.2/attn/Shape_1", "StatefulPartitionedCall/SparseToDense_25", "StatefulPartitionedCall/SelectV2_31", "StatefulPartitionedCall/ones_9"], "attr": {"shrink_axis_mask": {"i": "0"}, "new_axis_mask": {"i": "0"}, "Index": {"type": "DT_INT64"}, "begin_mask": {"i": "0"}, "T": {"type": "DT_INT64"}, "end_mask": {"i": "0"}, "ellipsis_mask": {"i": "0"}}}, {"name": "StatefulPartitionedCall/onnx_tf_prefix_/h.2/attn/Slice_2", "op": "StridedSlice", "input": ["StatefulPartitionedCall/onnx_tf_prefix_/h.2/attn/Shape_2", "StatefulPartitionedCall/SparseToDense_27", "StatefulPartitionedCall/SelectV2_35", "StatefulPartitionedCall/ones_10"], "attr": {"shrink_axis_mask": {"i": "0"}, "new_axis_mask": {"i": "0"}, "Index": {"type": "DT_INT64"}, "begin_mask": {"i": "0"}, "end_mask": {"i": "0"}, "T": {"type": "DT_INT64"}, "ellipsis_mask": {"i": "0"}}}, {"name": "StatefulPartitionedCall/cond_2/else/_76/cond_2/sub", "op": "Sub", "input": ["StatefulPartitionedCall/cond_2/else/_76/cond_2/sub/x", "StatefulPartitionedCall/cond_2/StatefulPartitionedCall/Const_33/_82"], "attr": {"T": {"type": "DT_INT64"}}}, {"name": "StatefulPartitionedCall/onnx_tf_prefix_/h.1/attn/Slice", "op": "StridedSlice", "input": ["StatefulPartitionedCall/onnx_tf_prefix_/h.1/attn/Shape", "StatefulPartitionedCall/SparseToDense_13", "StatefulPartitionedCall/SelectV2_15", "StatefulPartitionedCall/ones_4"], "attr": {"shrink_axis_mask": {"i": "0"}, "Index": {"type": "DT_INT64"}, "new_axis_mask": {"i": "0"}, "begin_mask": {"i": "0"}, "T": {"type": "DT_INT64"}, "end_mask": {"i": "0"}, "ellipsis_mask": {"i": "0"}}}, {"name": "StatefulPartitionedCall/onnx_tf_prefix_/h.1/attn/Slice_1", "op": "StridedSlice", "input": ["StatefulPartitionedCall/onnx_tf_prefix_/h.1/attn/Shape_1", "StatefulPartitionedCall/SparseToDense_15", "StatefulPartitionedCall/SelectV2_19", "StatefulPartitionedCall/ones_5"], "attr": {"shrink_axis_mask": {"i": "0"}, "new_axis_mask": {"i": "0"}, "Index": {"type": "DT_INT64"}, "begin_mask": {"i": "0"}, "T": {"type": "DT_INT64"}, "end_mask": {"i": "0"}, "ellipsis_mask": {"i": "0"}}}, {"name": "StatefulPartitionedCall/onnx_tf_prefix_/h.1/attn/Slice_2", "op": "StridedSlice", "input": ["StatefulPartitionedCall/onnx_tf_prefix_/h.1/attn/Shape_2", "StatefulPartitionedCall/SparseToDense_17", "StatefulPartitionedCall/SelectV2_23", "StatefulPartitionedCall/ones_6"], "attr": {"shrink_axis_mask": {"i": "0"}, "Index": {"type": "DT_INT64"}, "new_axis_mask": {"i": "0"}, "begin_mask": {"i": "0"}, "T": {"type": "DT_INT64"}, "end_mask": {"i": "0"}, "ellipsis_mask": {"i": "0"}}}, {"name": "StatefulPartitionedCall/cond_1/else/_65/cond_1/sub", "op": "Sub", "input": ["StatefulPartitionedCall/cond_1/else/_65/cond_1/sub/x", "StatefulPartitionedCall/cond_1/StatefulPartitionedCall/Const_21/_71"], "attr": {"T": {"type": "DT_INT64"}}}, {"name": "StatefulPartitionedCall/onnx_tf_prefix_/h.0/attn/Slice", "op": "StridedSlice", "input": ["StatefulPartitionedCall/onnx_tf_prefix_/h.0/attn/Shape", "StatefulPartitionedCall/SparseToDense_3", "StatefulPartitionedCall/SelectV2_3", "StatefulPartitionedCall/ones"], "attr": {"shrink_axis_mask": {"i": "0"}, "Index": {"type": "DT_INT64"}, "new_axis_mask": {"i": "0"}, "begin_mask": {"i": "0"}, "end_mask": {"i": "0"}, "T": {"type": "DT_INT64"}, "ellipsis_mask": {"i": "0"}}}, {"name": "StatefulPartitionedCall/onnx_tf_prefix_/h.0/attn/Slice_1", "op": "StridedSlice", "input": ["StatefulPartitionedCall/onnx_tf_prefix_/h.0/attn/Shape_1", "StatefulPartitionedCall/SparseToDense_5", "StatefulPartitionedCall/SelectV2_7", "StatefulPartitionedCall/ones_1"], "attr": {"shrink_axis_mask": {"i": "0"}, "new_axis_mask": {"i": "0"}, "Index": {"type": "DT_INT64"}, "begin_mask": {"i": "0"}, "T": {"type": "DT_INT64"}, "end_mask": {"i": "0"}, "ellipsis_mask": {"i": "0"}}}, {"name": "StatefulPartitionedCall/onnx_tf_prefix_/h.0/attn/Slice_2", "op": "StridedSlice", "input": ["StatefulPartitionedCall/onnx_tf_prefix_/h.0/attn/Shape_2", "StatefulPartitionedCall/SparseToDense_7", "StatefulPartitionedCall/SelectV2_11", "StatefulPartitionedCall/ones_2"], "attr": {"shrink_axis_mask": {"i": "0"}, "Index": {"type": "DT_INT64"}, "new_axis_mask": {"i": "0"}, "begin_mask": {"i": "0"}, "T": {"type": "DT_INT64"}, "end_mask": {"i": "0"}, "ellipsis_mask": {"i": "0"}}}, {"name": "StatefulPartitionedCall/cond/else/_54/cond/sub", "op": "Sub", "input": ["StatefulPartitionedCall/cond/else/_54/cond/sub/x", "StatefulPartitionedCall/cond/StatefulPartitionedCall/Const_9/_60"], "attr": {"T": {"type": "DT_INT64"}}}, {"name": "StatefulPartitionedCall/assert_equal_1/All", "op": "All", "input": ["StatefulPartitionedCall/assert_equal_1/Equal", "StatefulPartitionedCall/assert_equal_1/Const"], "attr": {"Tidx": {"type": "DT_INT32"}, "keep_dims": {"b": false}}}, {"name": "StatefulPartitionedCall/onnx_tf_prefix_/h.5/attn/Cast", "op": "Cast", "input": ["StatefulPartitionedCall/onnx_tf_prefix_/h.5/attn/Slice"], "attr": {"SrcT": {"type": "DT_INT64"}, "DstT": {"type": "DT_FLOAT"}, "Truncate": {"b": false}}}, {"name": "StatefulPartitionedCall/onnx_tf_prefix_/h.5/attn/Concat", "op": "ConcatV2", "input": ["StatefulPartitionedCall/onnx_tf_prefix_/h.5/attn/Slice_1", "StatefulPartitionedCall/onnx_tf_prefix_/h.5/attn/Slice_2", "StatefulPartitionedCall/onnx_tf_prefix_/h.5/attn/Concat/axis"], "attr": {"N": {"i": "2"}, "Tidx": {"type": "DT_INT32"}, "T": {"type": "DT_INT64"}}}, {"name": "StatefulPartitionedCall/onnx_tf_prefix_/h.4/attn/Cast", "op": "Cast", "input": ["StatefulPartitionedCall/onnx_tf_prefix_/h.4/attn/Slice"], "attr": {"SrcT": {"type": "DT_INT64"}, "DstT": {"type": "DT_FLOAT"}, "Truncate": {"b": false}}}, {"name": "StatefulPartitionedCall/onnx_tf_prefix_/h.4/attn/Concat", "op": "ConcatV2", "input": ["StatefulPartitionedCall/onn…
dCall/onnx_tf_prefix_/h.5/mlp/c_proj/MatMul", "op": "BatchMatMulV2", "input": ["StatefulPartitionedCall/onnx_tf_prefix_/h.5/mlp/gelu/Mul_1", "unknown_36"], "attr": {"adj_x": {"b": false}, "T": {"type": "DT_FLOAT"}, "adj_y": {"b": false}}}, {"name": "StatefulPartitionedCall/onnx_tf_prefix_/h.5/Add_1", "op": "AddV2", "input": ["StatefulPartitionedCall/onnx_tf_prefix_/h.5/Add", "StatefulPartitionedCall/onnx_tf_prefix_/h.5/mlp/c_proj/MatMul"], "attr": {"T": {"type": "DT_FLOAT"}}}, {"name": "StatefulPartitionedCall/onnx_tf_prefix_/ln_f/ReduceMean", "op": "Mean", "input": ["StatefulPartitionedCall/onnx_tf_prefix_/h.5/Add_1", "StatefulPartitionedCall/onnx_tf_prefix_/ln_f/ReduceMean/reduction_indices"], "attr": {"Tidx": {"type": "DT_INT32"}, "T": {"type": "DT_FLOAT"}, "keep_dims": {"b": true}}}, {"name": "StatefulPartitionedCall/onnx_tf_prefix_/ln_f/Sub", "op": "Sub", "input": ["StatefulPartitionedCall/onnx_tf_prefix_/h.5/Add_1", "StatefulPartitionedCall/onnx_tf_prefix_/ln_f/ReduceMean"], "attr": {"T": {"type": "DT_FLOAT"}}}, {"name": "StatefulPartitionedCall/onnx_tf_prefix_/ln_f/Pow", "op": "Square", "input": ["StatefulPartitionedCall/onnx_tf_prefix_/ln_f/Sub"], "attr": {"T": {"type": "DT_FLOAT"}}}, {"name": "StatefulPartitionedCall/onnx_tf_prefix_/ln_f/ReduceMean_1", "op": "Mean", "input": ["StatefulPartitionedCall/onnx_tf_prefix_/ln_f/Pow", "StatefulPartitionedCall/onnx_tf_prefix_/ln_f/ReduceMean_1/reduction_indices"], "attr": {"Tidx": {"type": "DT_INT32"}, "T": {"type": "DT_FLOAT"}, "keep_dims": {"b": true}}}, {"name": "StatefulPartitionedCall/onnx_tf_prefix_/ln_f/Add", "op": "AddV2", "input": ["StatefulPartitionedCall/onnx_tf_prefix_/ln_f/ReduceMean_1", "StatefulPartitionedCall/onnx_tf_prefix_/ln_f/Constant_1"], "attr": {"T": {"type": "DT_FLOAT"}}}, {"name": "StatefulPartitionedCall/onnx_tf_prefix_/ln_f/Sqrt", "op": "Rsqrt", "input": ["StatefulPartitionedCall/onnx_tf_prefix_/ln_f/Add"], "attr": {"T": {"type": "DT_FLOAT"}}}, {"name": "StatefulPartitionedCall/onnx_tf_prefix_/ln_f/Div", "op": "Mul", "input": ["unknown_37", "StatefulPartitionedCall/onnx_tf_prefix_/ln_f/Sqrt"], "attr": {"T": {"type": "DT_FLOAT"}}}, {"name": "StatefulPartitionedCall/onnx_tf_prefix_/ln_f/Mul", "op": "Mul", "input": ["StatefulPartitionedCall/onnx_tf_prefix_/ln_f/Sub", "StatefulPartitionedCall/onnx_tf_prefix_/ln_f/Div"], "attr": {"T": {"type": "DT_FLOAT"}}}, {"name": "StatefulPartitionedCall/onnx_tf_prefix_/Gather", "op": "GatherV2", "input": ["StatefulPartitionedCall/onnx_tf_prefix_/ln_f/Mul", "StatefulPartitionedCall/FloorMod_1", "StatefulPartitionedCall/onnx_tf_prefix_/Gather/axis"], "attr": {"Taxis": {"type": "DT_INT32"}, "Tparams": {"type": "DT_FLOAT"}, "Tindices": {"type": "DT_INT64"}, "batch_dims": {"i": "0"}}}, {"name": "StatefulPartitionedCall/onnx_tf_prefix_/lm_head/MatMul", "op": "BatchMatMulV2", "input": ["StatefulPartitionedCall/onnx_tf_prefix_/Gather", "unknown_38"], "attr": {"adj_x": {"b": false}, "T": {"type": "DT_FLOAT"}, "adj_y": {"b": false}}}, {"name": "Identity", "op": "Identity", "input": ["StatefulPartitionedCall/onnx_tf_prefix_/lm_head/MatMul", "^StatefulPartitionedCall/assert_equal_3/Assert/AssertGuard/branch_executed/_128", "^StatefulPartitionedCall/assert_equal_1/Assert/AssertGuard/branch_executed/_52"], "attr": {"T": {"type": "DT_FLOAT"}}}], "library": {}, "versions": {"producer": 1645}}, "weightsManifest": [{"paths": ["group1-shard1of11.bin", "group1-shard2of11.bin", "group1-shard3of11.bin", "group1-shard4of11.bin", "group1-shard5of11.bin", "group1-shard6of11.bin", "group1-shard7of11.bin", "group1-shard8of11.bin", "group1-shard9of11.bin", "group1-shard10of11.bin", "group1-shard11of11.bin"], "weights": [{"name": "unknown_37", "shape": [384], "dtype": "float32"}, {"name": "StatefulPartitionedCall/onnx_tf_prefix_/h.5/mlp/gelu/Constant_2", "shape": [], "dtype": "float32"}, {"name": "unknown_34", "shape": [384], "dtype": "float32"}, {"name": "StatefulPartitionedCall/onnx_tf_prefix_/h.5/attn/Constant_2", "shape": [4], "dtype": "int32"}, {"name": "StatefulPartitionedCall/Where_21", "shape": [0, 1], "dtype": "int32"}, {"name": "StatefulPartitionedCall/Cast_53", "shape": [1], "dtype": "int32"}, {"name": "StatefulPartitionedCall/GatherV2_21", "shape": [0], "dtype": "int32"}, {"name": "StatefulPartitionedCall/zeros_36", "shape": [], "dtype": "int32"}, {"name": "StatefulPartitionedCall/onnx_tf_prefix_/h.5/attn/Transpose_1/perm", "shape": [4], "dtype": "int32"}, {"name": "StatefulPartitionedCall/onnx_tf_prefix_/h.5/attn/Constant_1", "shape": [4], "dtype": "int32"}, {"name": "StatefulPartitionedCall/Where_20", "shape": [0, 1], "dtype": "int32"}, {"name": "StatefulPartitionedCall/Cast_52", "shape": [1], "dtype": "int32"}, {"name": "StatefulPartitionedCall/GatherV2_20", "shape": [0], "dtype": "int32"}, {"name": "StatefulPartitionedCall/zeros_35", "shape": [], "dtype": "int32"}, {"name": "StatefulPartitionedCall/onnx_tf_prefix_/h.5/attn/Transpose_3/perm", "shape": [4], "dtype": "int32"}, {"name": "StatefulPartitionedCall/onnx_tf_prefix_/h.5/attn/Shape", "shape": [4], "dtype": "int32"}, {"name": "StatefulPartitionedCall/SelectV2_61", "shape": [1], "dtype": "int32"}, {"name": "StatefulPartitionedCall/zeros_38", "shape": [], "dtype": "int32"}, {"name": "StatefulPartitionedCall/Const_64", "shape": [], "dtype": "int32"}, {"name": "StatefulPartitionedCall/Shape_76", "shape": [1], "dtype": "int32"}, {"name": "StatefulPartitionedCall/ExpandDims_15", "shape": [1, 1], "dtype": "int32"}, {"name": "StatefulPartitionedCall/Cast_56", "shape": [1], "dtype": "int32"}, {"name": "StatefulPartitionedCall/SelectV2_62", "shape": [1], "dtype": "int32"}, {"name": "StatefulPartitionedCall/Const_63", "shape": [], "dtype": "int32"}, {"name": "StatefulPartitionedCall/ones_20", "shape": [1], "dtype": "int32"}, {"name": "Func/StatefulPartitionedCall/cond_5/then/_108/input/_213", "shape": [], "dtype": "int32"}, {"name": "Func/StatefulPartitionedCall/cond_5/then/_108/input/_214", "shape": [], "dtype": "int32"}, {"name": "StatefulPartitionedCall/onnx_tf_prefix_/h.5/attn/Constant_9", "shape": [1], "dtype": "float32"}, {"name": "StatefulPartitionedCall/onnx_tf_prefix_/h.5/attn/Shape_1", "shape": [4], "dtype": "int32"}, {"name": "StatefulPartitionedCall/SelectV2_65", "shape": [1], "dtype": "int32"}, {"name": "StatefulPartitionedCall/zeros_39", "shape": [], "dtype": "int32"}, {"name": "StatefulPartitionedCall/Const_66", "shape": [], "dtype": "int32"}, {"name": "StatefulPartitionedCall/Shape_78", "shape": [1], "dtype": "int32"}, {"name": "StatefulPartitionedCall/ExpandDims_16", "shape": [1, 1], "dtype": "int32"}, {"name": "StatefulPartitionedCall/Cast_58", "shape": [1], "dtype": "int32"}, {"name": "StatefulPartitionedCall/SelectV2_66", "shape": [1], "dtype": "int32"}, {"name": "StatefulPartitionedCall/Const_65", "shape": [], "dtype": "int32"}, {"name": "StatefulPartitionedCall/ones_21", "shape": [1], "dtype": "int32"}, {"name": "StatefulPartitionedCall/onnx_tf_prefix_/h.5/attn/Shape_2", "shape": [4], "dtype": "int32"}, {"name": "StatefulPartitionedCall/SelectV2_69", "shape": [1], "dtype": "int32"}, {"name": "StatefulPartitionedCall/zeros_40", "shape": [], "dtype": "int32"}, {"name": "StatefulPartitionedCall/Const_68", "shape": [], "dtype": "int32"}, {"name": "StatefulPartitionedCall/Shape_80", "shape": [1], "dtype": "int32"}, {"name": "StatefulPartitionedCall/ExpandDims_17", "shape": [1, 1], "dtype": "int32"}, {"name": "StatefulPartitionedCall/Cast_60", "shape": [1], "dtype": "int32"}, {"name": "StatefulPartitionedCall/SelectV2_70", "shape": [1], "dtype": "int32"}, {"name": "StatefulPartitionedCall/Const_67", "shape": [], "dtype": "int32"}, {"name": "StatefulPartitionedCall/ones_22", "shape": [1], "dtype": "int32"}, {"name": "StatefulPartitionedCall/onnx_tf_prefix_/h.5/attn/Concat/axis", "shape": [], "dtype": "int32"}, {"name": "StatefulPartitionedCall/ones_23/Const", "shape": [], "dtype": "float32"}, {"name": "StatefulPartitionedCall/Const_69", "shape": [], "dtype": "int32"}, {"name": "StatefulPartitionedCall/Const_70", "shape": [], "dtype": "int32"}, {"name": "StatefulPartitionedCall/GreaterEqual_6", "shape": [], "dtype": "bool"}, {"name": "StatefulPartitionedCall/onnx_tf_prefix_/h.5/attn/Constant_12", "shape": [1], "dtype": "float32"}, {"name": "StatefulPartitionedCall/onnx_tf_prefix_/h.5/attn/Constant_11", "shape": [1], "dtype": "float32"}, {"name": "StatefulPartitionedCall/onnx_tf_prefix_/h.5/attn/Constant_10", "shape": [1], "dtype": "float32"}, {"name": "unknown_31", "shape": [384], "dtype": "float32"}, {"name": "StatefulPartitionedCall/onnx_tf_prefix_/h.4/mlp/gelu/Constant_2", "shape": [], "dtype": "float32"}, {"name": "unknown_28", "shape": [384], "dtype": "float32"}, {"name": "StatefulPartitionedCall/onnx_tf_prefix_/h.4/attn/Constant_2", "shape": [4], "dtype": "int32"}, {"name": "StatefulPartitionedCall/Where_17", "shape": [0, 1], "dtype": "int32"}, {"name": "StatefulPartitionedCall/Cast_43", "shape": [1], "dtype": "int32"}, {"name": "StatefulPartitionedCall/GatherV2_17", "shape": [0], "dtype": "int32"}, {"name": "StatefulPartitionedCall/zeros_29", "shape": [], "dtype": "int32"}, {"name": "StatefulPartitionedCall/onnx_tf_prefix_/h.4/attn/Transpose_1/perm", "shape": [4], "dtype": "int32"}, {"name": "StatefulPartitionedCall/onnx_tf_prefix_/h.4/attn/Constant_1", "shape": [4], "dtype": "int32"}, {"name": "StatefulPartitionedCall/Where_16", "shape": [0, 1], "dtype": "int32"}, {"name": "StatefulPartitionedCall/Cast_42", "shape": [1], "dtype": "int32"}, {"name": "StatefulPartitionedCall/GatherV2_16", "shape": [0], "dtype": "int32"}, {"name": "StatefulPartitionedCall/zeros_28", "shape": [], "dtype": "int32"}, {"name": "StatefulPartitionedCall/onnx_tf_prefix_/h.4/attn/Transpose_3/perm", "shape": [4], "dtype": "int32"}, {"name": "StatefulPartitionedCall/onnx_tf_prefix_/h.4/attn/Shape", "shape": [4], "dtype": "int32"}, {"name": "StatefulPartitionedCall/SelectV2_49", "shape": [1], "dtype": "int32"}, {"name": "StatefulPartitionedCall/zeros_31", "shape": [], "dtype": "int32"}, {"name": "StatefulPartitionedCall/Const_52", "shape": [], "dtype": "int32"}, {"name": "StatefulPartitionedCall/Shape_62", "shape": [1], "dtype": "int32"}, {"name": "StatefulPartitionedCall/ExpandDims_12", "shape": [1, 1], "dtype": "int32"}, {"name": "StatefulPartitionedCall/Cast_46", "shape": [1], "dtype": "int32"}, {"name": "StatefulPartitionedCall/SelectV2_50", "shape": [1], "dtype": "int32"}, {"name": "StatefulPartitionedCall/Const_51", "shape": [], "dtype": "int32"}, {"name": "StatefulPartitionedCall/ones_16", "shape": [1], "dtype": "int32"}, {"name": "Func/StatefulPartitionedCall/cond_4/then/_97/input/_199", "shape": [], "dtype": "int32"}, {"name": "Func/StatefulPartitionedCall/cond_4/then/_97/input/_200", "shape": [], "dtype": "int32"}, {"name": "StatefulPartitionedCall/onnx_tf_prefix_/h.4/attn/Constant_9", "shape": [1], "dtype": "float32"}, {"name": "StatefulPartitionedCall/onnx_tf_prefix_/h.4/attn/Shape_1", "shape": [4], "dtype": "int32"}, {"name": "StatefulPartitionedCall/SelectV2_53", "shape": [1], "dtype": "int32"}, {"name": "StatefulPartitionedCall/zeros_32", "shape": [], "dtype": "int32"}, {"name": "StatefulPartitionedCall/Const_54", "shape": [], "dtype": "int32"}, {"name": "StatefulPartitionedCall/Shape_64", "shape": [1], "dtype": "int32"}, {"name": "StatefulPartitionedCall/ExpandDims_13", "shape": [1, 1], "dtype": "int32"}, {"name": "StatefulPartitionedCall/Cast_48", "shape": [1], "dtype": "int32"}, {"name": "StatefulPartitionedCall/SelectV2_54", "shape": [1], "dtype": "int32"}, {"name": "StatefulPartitionedCall/Const_53", "shape": [], "dtype": "int32"}, {"name": "StatefulPartitionedCall/ones_17", "shape": [1], "dtype": "int32"}, {"name": "StatefulPartitionedCall/onnx_tf_prefix_/h.4/attn/Shape_2", "shape": [4], "dtype": "int32"}, {"name": "StatefulPartitionedCall/SelectV2_57", "shape": [1], "dtype": "int32"}, {"name": "StatefulPartitionedCall/zeros_33", "shape": [], "dtype": "int32"}, {"name": "StatefulPartitionedCall/Const_56", "shape": [], "dtype": "int32"}, {"name": "StatefulPartitionedCall/Shape_66", "shape": [1], "dtype": "int32"}, {"name": "StatefulPartitionedCall/ExpandDims_14", "shape": [1, 1], "dtype": "int32"}, {"name": "StatefulPartitionedCall/Cast_50", "shape": [1], "dtype": "int32"}, {"name": "StatefulPartitionedCall/SelectV2_58", "shape": [1], "dtype": "int32"}, {"name": "StatefulPartitionedCall/Const_55", "shape": [], "dtype": "int32"}, {"name": "StatefulPartitionedCall/ones_18", "shape": [1], "dtype": "int32"}, {"name": "StatefulPartitionedCall/onnx_tf_prefix_/h.4/attn/Concat/axis", "shape": [], "dtype": "int32"}, {"name": "StatefulPartitionedCall/ones_19/Const", "shape": [], "dtype": "float32"}, {"name": "StatefulPartitionedCall/Const_57", "shape": [], "dtype": "int32"}, {"name": "StatefulPartitionedCall/Const_58", "shape": [], "dtype": "int32"}, {"name": "StatefulPartitionedCall/GreaterEqual_5", "shape": [], "dtype": "bool"}, {"name": "StatefulPartitionedCall/onnx_tf_prefix_/h.4/attn/Constant_12", "shape": [1], "dtype": "float32"}, {"name": "StatefulPartitionedCall/onnx_tf_prefix_/h.4/attn/Constant_11", "shape": [1], "dtype": "float32"}, {"name": "StatefulPartitionedCall/onnx_tf_prefix_/h.4/attn/Constant_10", "shape": [1], "dtype": "float32"}, {"name": "unknown_25", "shape": [384], "dtype": "float32"}, {"name": "StatefulPartitionedCall/onnx_tf_prefix_/h.3/mlp/gelu/Constant_2", "shape": [], "dtype": "float32"}, {"name": "unknown_22", "shape": [384], "dtype": "float32"}, {"name": "StatefulPartitionedCall/onnx_tf_prefix_/h.3/attn/Constant_2", "shape": [4], "dtype": "int32"}, {"name": "StatefulPartitionedCall/Where_13", "shape": [0, 1], "dtype": "int32"}, {"name": "StatefulPartitionedCall/Cast_33", "shape": [1], "dtype": "int32"}, {"name": "StatefulPartitionedCall/GatherV2_13", "shape": [0], "dtype": "int32"}, {"name": "StatefulPartitionedCall/zeros_22", "shape": [], "dtype": "int32"}, {"name": "StatefulPartitionedCall/onnx_tf_prefix_/h.3/attn/Transpose_1/perm", "shape": [4], "dtype": "int32"}, {"name": "StatefulPartitionedCall/onnx_tf_prefix_/h.3/attn/Constant_1", "shape": [4], "dtype": "int32"}, {"name": "StatefulPartitionedCall/Where_12", "shape": [0, 1], "dtype": "int32"}, {"name": "StatefulPartitionedCall/Cast_32", "shape": [1], "dtype": "int32"}, {"name": "StatefulPartitionedCall/GatherV2_12", "shape": [0], "dtype": "int32"}, {"name": "StatefulPartitionedCall/zeros_21", "shape": [], "dtype": "int32"}, {"name": "StatefulPartitionedCall/onnx_tf_prefix_/h.3/attn/Transpose_3/perm", "shape": [4], "dtype": "int32"}, {"name": "StatefulPartitionedCall/onnx_tf_prefix_/h.3/attn/Shape", "shape": [4], "dtype": "int32"}, {"name": "StatefulPartitionedCall/SelectV2_37", "shape": [1], "dtype": "int32"}, {"name": "StatefulPartitionedCall/zeros_24", "shape": [], "dtype": "int32"}, {"name": "StatefulPartitionedCall/Const_40", "shape": [], "dtype": "int32"}, {"name": "StatefulPartitionedCall/Shape_48", "shape": [1], "dtype": "int32"}, {"name": "StatefulPartitionedCall/ExpandDims_9", "shape": [1, 1], "dtype": "int32"}, {"name": "StatefulPartitionedCall/Cast_36", "shape": [1], "dtype": "int32"}, {"name": "StatefulPartitionedCall/SelectV2_38", "shape": [1], "dtype": "int32"}, {"name": "StatefulPartitionedCall/Const_39", "shape": [], "dtype": "int32"}, {"name": "StatefulPartitionedCall/ones_12", "shape": [1], "dtype": "int32"}, {"name": "Func/StatefulPartitionedCall/cond_3/then/_86/input/_185", "shape": [], "dtype": "int32"}, {"name": "Func/StatefulPartitionedCall/cond_3/then/_86/input/_186", "shape": [], "dtype": "int32"}, {"name": "StatefulPartitionedCall/onnx_tf_prefix_/h.3/attn/Constant_9", "shape": [1], "dtype": "float32"}, {"name": "StatefulPartitionedCall/onnx_tf_prefix_/h.3/attn/Shape_1", "shape": [4], "dtype": "int32"}, {"name": "StatefulPartitionedCall/SelectV2_41", "shape": [1], "dtype": "int32"}, {"name": "StatefulPartitionedCall/zeros_25", "shape": [], "dtype": "int32"}, {"name": "StatefulPartitionedCall/Const_42", "shape": [], "dtype": "int32"}, {"name": "StatefulPartitionedCall/Shape_50", "shape": [1], "dtype": "int32"}, {"name": "StatefulPartitionedCall/ExpandDims_10", "shape": [1, 1], "dtype": "int32"}, {"name": "StatefulPartitionedCall/Cast_38", "shape": [1], "dtype": "int32"}, {"name": "StatefulPartitionedCall/SelectV2_42", "shape": [1], "dtype": "int32"}, {"name": "StatefulPartitionedCall/Const_41", "shape": [], "dtype": "int32"}, {"name": "StatefulPartitionedCall/ones_13", "shape": [1], "dtype": "int32"}, {"name": "StatefulPartitionedCall/onnx_tf_prefix_/h.3/attn/Shape_2", "shape": [4], "dtype": "int32"}, {"name": "StatefulPartitionedCall/SelectV2_45", "shape": [1], "dtype": "int32"}, {"name": "StatefulPartitionedCall/zeros_26", "shape": [], "dtype": "int32"}, {"name": "StatefulPartitionedCall/Const_44", "shape": [], "dtype": "int32"}, {"name": "StatefulPartitionedCall/Shape_52", "shape": [1], "dtype": "int32"}, {"name": "StatefulPartitionedCall/ExpandDims_11", "shape": [1, 1], "dtype": "int32"}, {"name": "StatefulPartitionedCall/Cast_40", "shape": [1], "dtype": "int32"}, {"name": "StatefulPartitionedCall/SelectV2_46", "shape": [1], "dtype": "int32"}, {"name": "StatefulPartitionedCall/Const_43", "shape": [], "dtype": "int32"}, {"name": "StatefulPartitionedCall/ones_14", "shape": [1], "dtype": "int32"}, {"name": "StatefulPartitionedCall/onnx_tf_prefix_/h.3/attn/Concat/axis", "shape": [], "dtype": "int32"}, {"name": "StatefulPartitionedCall/ones_15/Const", "shape": [], "dtype": "float32"}, {"name": "StatefulPartitionedCall/Const_45", "shape": [], "dtype": "int32"}, {"name": "StatefulPartitionedCall/Const_46", "shape": [], "dtype": "int32"}, {"name": "StatefulPartitionedCall/GreaterEqual_4", "shape": [], "dtype": "bool"}, {"name": "StatefulPartitionedCall/onnx_tf_prefix_/h.3/attn/Constant_12", "shape": [1], "dtype": "float32"}, {"name": "StatefulPartitionedCall/onnx_tf_prefix_/h.3/attn/Constant_11", "shape": [1], "dtype": "float32"}, {"name": "StatefulPartitionedCall/onnx_tf_prefix_/h.3/attn/Constant_10", "shape": [1], "dtype": "float32"}, {"name": "unknown_19", "shape": [384], "dtype": "float32"}, {"name": "StatefulPartitionedCall/onnx_tf_prefix_/h.2/mlp/gelu/Constant_2", "shape": [], "dtype": "float32"}, {"name": "unknown_16", "shape": [384], "dtype": "float32"}, {"name": "StatefulPartitionedCall/onnx_tf_prefix_/h.2/attn/Constant_2", "shape": [4], "dtype": "int32"}, {"name": "StatefulPartitionedCall/Where_9", "shape": [0, 1], "dtype": "int32"}, {"name": "StatefulPartitionedCall/Cast_23", "shape": [1], "dtype": "int32"}, {"name": "StatefulPartitionedCall/GatherV2_9", "shape": [0], "dtype": "int32"}, {"name": "StatefulPartitionedCall/zeros_15", "shape": [], "dtype": "int32"}, {"name": "StatefulPartitionedCall/onnx_tf_prefix_/h.2/attn/Transpose_1/perm", "shape": [4], "dtype": "int32"}, {"name": "StatefulPartitionedCall/onnx_tf_prefix_/h.2/attn/Constant_1", "shape": [4], "dtype": "int32"}, {"name": "StatefulPartitionedCall/Where_8", "shape": [0, 1], "dtype": "int32"}, {"name": "StatefulPartitionedCall/Cast_22", "shape": [1], "dtype": "int32"}, {"name": "StatefulPartitionedCall/GatherV2_8", "shape": [0], "dtype": "int32"}, {"name": "StatefulPartitionedCall/zeros_14", "shape": [], "dtype": "int32"}, {"name": "StatefulPartitionedCall/onnx_tf_prefix_/h.2/attn/Transpose_3/perm", "shape": [4], "dtype": "int32"}, {"name": "StatefulPartitionedCall/onnx_tf_prefix_/h.2/attn/Shape", "shape": [4], "dtype": "int32"}, {"name": "StatefulPartitionedCall/SelectV2_25", "shape": [1], "dtype": "int32"}, {"name": "StatefulPartitionedCall/zeros_17", "shape": [], "dtype": "int32"}, {"name": "StatefulPartitionedCall/Const_28", "shape": [], "dtype": "int32"}, {"name": "StatefulPartitionedCall/Shape_34", "shape": [1], "dtype": "int32"}, {"name": "StatefulPartitionedCall/ExpandDims_6", "shape": [1, 1], "dtype": "int32"}, {"name": "StatefulPartitionedCall/Cast_26", "shape": [1], "dtype": "int32"}, {"name": "StatefulPartitionedCall/SelectV2_26", "shape": [1], "dtype": "int32"}, {"name": "StatefulPartitionedCall/Const_27", "shape": [], "dtype": "int32"}, {"name": "StatefulPartitionedCall/ones_8", "shape": [1], "dtype": "int32"}, {"name": "Func/StatefulPartitionedCall/cond_2/then/_75/input/_171", "shape": [], "dtype": "int32"}, {"name": "Func/StatefulPartitionedCall/cond_2/then/_75/input/_172", "shape": [], "dtype": "int32"}, {"name": "StatefulPartitionedCall/onnx_tf_prefix_/h.2/attn/Constant_9", "shape": [1], "dtype": "float32"}, {"name": "StatefulPartitionedCall/onnx_tf_prefix_/h.2/attn/Shape_1", "shape": [4], "dtype": "int32"}, {"name": "StatefulPartitionedCall/SelectV2_29", "shape": [1], "dtype": "int32"}, {"name": "StatefulPartitionedCall/zeros_18", "shape": [], "dtype": "int32"}, {"name": "StatefulPartitionedCall/Const_30", "shape": [], "dtype": "int32"}, {"name": "StatefulPartitionedCall/Shape_36", "shape": [1], "dtype": "int32"}, {"name": "StatefulPartitionedCall/ExpandDims_7", "shape": [1, 1], "dtype": "int32"}, {"name": "StatefulPartitionedCall/Cast_28", "shape": [1], "dtype": "int32"}, {"name": "StatefulPartitionedCall/SelectV2_30", "shape": [1], "dtype": "int32"}, {"name": "StatefulPartitionedCall/Const_29", "shape": [], "dtype": "int32"}, {"name": "StatefulPartitionedCall/ones_9", "shape": [1], "dtype": "int32"}, {"name": "StatefulPartitionedCall/onnx_tf_prefix_/h.2/attn/Shape_2", "shape": [4], "dtype": "int32"}, {"name": "StatefulPartitionedCall/SelectV2_33", "shape": [1], "dtype": "int32"}, {"name": "StatefulPartitionedCall/zeros_19", "shape": [], "dtype": "int32"}, {"name": "StatefulPartitionedCall/Const_32", "shape": [], "dtype": "int32"}, {"name": "StatefulPartitionedCall/Shape_38", "shape": [1], "dtype": "int32"}, {"name": "StatefulPartitionedCall/ExpandDims_8", "shape": [1, 1], "dtype": "int32"}, {"name": "StatefulPartitionedCall/Cast_30", "shape": [1], "dtype": "int32"}, {"name": "StatefulPartitionedCall/SelectV2_34", "shape": [1], "dtype": "int32"}, {"name": "StatefulPartitionedCall/Const_31", "shape": [], "dtype": "int32"}, {"name": "StatefulPartitionedCall/ones_10", "shape": [1], "dtype": "int32"}, {"name": "StatefulPartitionedCall/onnx_tf_prefix_/h.2/attn/Concat/axis", "shape": [], "dtype": "int32"}, {"name": "StatefulPartitionedCall/ones_11/Const", "shape": [], "dtype": "float32"}, {"name": "StatefulPartitionedCall/Const_33", "shape": [], "dtype": "int32"}, {"name": "StatefulPartitionedCall/Const_34", "shape": [], "dtype": "int32"}, {"name": "StatefulPartitionedCall/GreaterEqual_3", "shape": [], "dtype": "bool"}, {"name": "StatefulPartitionedCall/onnx_tf_prefix_/h.2/attn/Constant_12", "shape": [1], "dtype": "float32"}, {"name": "StatefulPartitionedCall/onnx_tf_prefix_/h.2/attn/Constant_11", "shape": [1], "dtype": "float32"}, {"name": "StatefulPartitionedCall/onnx_tf_prefix_/h.2/attn/Constant_10", "shape": [1], "dtype": "float32"}, {"name": "unknown_13", "shape": [384], "dtype": "float32"}, {"name": "StatefulPartitionedCall/onnx_tf_prefix_/h.1/mlp/gelu/Constant_2", "shape": [], "dtype": "float32"}, {"name": "unknown_10", "shape": [384], "dtype": "float32"}, {"name": "StatefulPartitionedCall/onnx_tf_prefix_/h.1/attn/Constant_2", "shape": [4], "dtype": "int32"}, {"name": "StatefulPartitionedCall/Where_5", "shape": [0, 1], "dtype": "int32"}, {"name": "StatefulPartitionedCall/Cast_13", "shape": [1], "dtype": "int32"}, {"name": "StatefulPartitionedCall/GatherV2_5", "shape": [0], "dtype": "int32"}, {"name": "StatefulPartitionedCall/zeros_8", "shape": [], "dtype": "int32"}, {"name": "StatefulPartitionedCall/onnx_tf_prefix_/h.1/attn/Transpose_1/perm", "shape": [4], "dtype": "int32"}, {"name": "StatefulPartitionedCall/onnx_tf_prefix_/h.1/attn/Constant_1", "shape": [4], "dtype": "int32"}, {"name": "StatefulPartitionedCall/Where_4", "shape": [0, 1], "dtype": "int32"}, {"name": "StatefulPartitionedCall/Cast_12", "shape": [1], "dtype": "int32"}, {"name": "StatefulPartitionedCall/GatherV2_4", "shape": [0], "dtype": "int32"}, {"name": "StatefulPartitionedCall/zeros_7", "shape": [], "dtype": "int32"}, {"name": "StatefulPartitionedCall/onnx_tf_prefix_/h.1/attn/Transpose_3/perm", "shape": [4], "dtype": "int32"}, {"name": "StatefulPartitionedCall/onnx_tf_prefix_/h.1/attn/Shape", "shape": [4], "dtype": "int32"}, {"name": "StatefulPartitionedCall/SelectV2_13", "shape": [1], "dtype": "int32"}, {"name": "StatefulPartitionedCall/zeros_10", "shape": [], "dtype": "int32"}, {"name": "StatefulPartitionedCall/Const_16", "shape": [], "dtype": "int32"}, {"name": "StatefulPartitionedCall/Shape_20", "shape": [1], "dtype": "int32"}, {"name": "StatefulPartitionedCall/ExpandDims_3", "shape": [1, 1], "dtype": "int32"}, {"name": "StatefulPartitionedCall/Cast_16", "shape": [1], "dtype": "int32"}, {"name": "StatefulPartitionedCall/SelectV2_14", "shape": [1], "dtype": "int32"}, {"name": "StatefulPartitionedCall/Const_15", "shape": [], "dtype": "int32"}, {"name": "StatefulPartitionedCall/ones_4", "shape": [1], "dtype": "int32"}, {"name": "Func/StatefulPartitionedCall/cond_1/then/_64/input/_157", "shape": [], "dtype": "int32"}, {"name": "Func/StatefulPartitionedCall/cond_1/then/_64/input/_158", "shape": [], "dtype": "int32"}, {"name": "StatefulPartitionedCall/onnx_tf_prefix_/h.1/attn/Constant_9", "shape": [1], "dtype": "float32"}, {"name": "StatefulPartitionedCall/onnx_tf_prefix_/h.1/attn/Shape_1", "shape": [4], "dtype": "int32"}, {"name": "StatefulPartitionedCall/SelectV2_17", "shape": [1], "dtype": "int32"}, {"name": "StatefulPartitionedCall/zeros_11", "shape": [], "dtype": "int32"}, {"name": "StatefulPartitionedCall/Const_18", "shape": [], "dtype": "int32"}, {"name": "StatefulPartitionedCall/Shape_22", "shape": [1], "dtype": "int32"}, {"name": "StatefulPartitionedCall/ExpandDims_4", "shape": [1, 1], "dtype": "int32"}, {"name": "StatefulPartitionedCall/Cast_18", "shape": [1], "dtype": "int32"}, {"name": "StatefulPartitionedCall/SelectV2_18", "shape": [1], "dtype": "int32"}, {"name": "StatefulPartitionedCall/Const_17", "shape": [], "dtype": "int32"}, {"name": "StatefulPartitionedCall/ones_5", "shape": [1], "dtype": "int32"}, {"name": "StatefulPartitionedCall/onnx_tf_prefix_/h.1/attn/Shape_2", "shape": [4], "dtype": "int32"}, {"name": "StatefulPartitionedCall/SelectV2_21", "shape": [1], "dtype": "int32"}, {"name": "StatefulPartitionedCall/zeros_12", "shape": [], "dtype": "int32"}, {"name": "StatefulPartitionedCall/Const_20", "shape": [], "dtype": "int32"}, {"name": "StatefulPartitionedCall/Shape_24", "shape": [1], "dtype": "int32"}, {"name": "StatefulPartitionedCall/ExpandDims_5", "shape": [1, 1], "dtype": "int32"}, {"name": "StatefulPartitionedCall/Cast_20", "shape": [1], "dtype": "int32"}, {"name": "StatefulPartitionedCall/SelectV2_22", "shape": [1], "dtype": "int32"}, {"name": "StatefulPartitionedCall/Const_19", "shape": [], "dtype": "int32"}, {"name": "StatefulPartitionedCall/ones_6", "shape": [1], "dtype": "int32"}, {"name": "StatefulPartitionedCall/onnx_tf_prefix_/h.1/attn/Concat/axis", "shape": [], "dtype": "int32"}, {"name": "StatefulPartitionedCall/ones_7/Const", "shape": [], "dtype": "float32"}, {"name": "StatefulPartitionedCall/Const_21", "shape": [], "dtype": "int32"}, {"name": "StatefulPartitionedCall/Const_22", "shape": [], "dtype": "int32"}, {"name": "StatefulPartitionedCall/GreaterEqual_2", "shape": [], "dtype": "bool"}, {"name": "StatefulPartitionedCall/onnx_tf_prefix_/h.1/attn/Constant_12", "shape": [1], "dtype": "float32"}, {"name": "StatefulPartitionedCall/onnx_tf_prefix_/h.1/attn/Constant_11", "shape": [1], "dtype": "float32"}, {"name": "StatefulPartitionedCall/onnx_tf_prefix_/h.1/attn/Constant_10", "shape": [1], "dtype": "float32"}, {"name": "unknown_7", "shape": [384], "dtype": "float32"}, {"name": "StatefulPartitionedCall/onnx_tf_prefix_/h.0/mlp/gelu/Constant_2", "shape": [], "dtype": "float32"}, {"name": "unknown_4", "shape": [384], "dtype": "float32"}, {"name": "StatefulPartitionedCall/onnx_tf_prefix_/h.0/attn/Constant_2", "shape": [4], "dtype": "int32"}, {"name": "StatefulPartitionedCall/Where_1", "shape": [0, 1], "dtype": "int32"}, {"name": "StatefulPartitionedCall/Cast_3", "shape": [1], "dtype": "int32"}, {"name": "StatefulPartitionedCall/GatherV2_1", "shape": [0], "dtype": "int32"}, {"name": "StatefulPartitionedCall/zeros_1", "shape": [], "dtype": "int32"}, {"name": "StatefulPartitionedCall/onnx_tf_prefix_/h.0/attn/Transpose_1/perm", "shape": [4], "dtype": "int32"}, {"name": "StatefulPartitionedCall/onnx_tf_prefix_/h.0/attn/Constant_1", "shape": [4], "dtype": "int32"}, {"name": "StatefulPartitionedCall/Where", "shape": [0, 1], "dtype": "int32"}, {"name": "StatefulPartitionedCall/Cast_2", "shape": [1], "dtype": "int32"}, {"name": "StatefulPartitionedCall/GatherV2", "shape": [0], "dtype": "int32"}, {"name": "StatefulPartitionedCall/zeros", "shape": [], "dtype": "int32"}, {"name": "StatefulPartitionedCall/onnx_tf_prefix_/h.0/attn/Transpose_3/perm", "shape": [4], "dtype": "int32"}, {"name": "StatefulPartitionedCall/onnx_tf_prefix_/h.0/attn/Shape", "shape": [4], "dtype": "int32"}, {"name": "StatefulPartitionedCall/SelectV2_1", "shape": [1], "dtype": "int32"}, {"name": "StatefulPartitionedCall/zeros_3", "shape": [], "dtype": "int32"}, {"name": "StatefulPartitionedCall/Const_4", "shape": [], "dtype": "int32"}, {"name": "StatefulPartitionedCall/Shape_6", "shape": [1], "dtype": "int32"}, {"name": "StatefulPartitionedCall/ExpandDims", "shape": [1, 1], "dtype": "int32"}, {"name": "StatefulPartitionedCall/Cast_6", "shape": [1], "dtype": "int32"}, {"name": "StatefulPartitionedCall/SelectV2_2", "shape": [1], "dtype": "int32"}, {"name": "StatefulPartitionedCall/Const_3", "shape": [], "dtype": "int32"}, {"name": "StatefulPartitionedCall/ones", "shape": [1], "dtype": "int32"}, {"name": "Func/StatefulPartitionedCall/cond/then/_53/input/_143", "shape": [], "dtype": "int32"}, {"name": "Func/StatefulPartitionedCall/cond/then/_53/input/_144", "shape": [], "dtype": "int32"}, {"name": "StatefulPartitionedCall/onnx_tf_prefix_/h.0/attn/Constant_9", "shape": [1], "dtype": "float32"}, {"name": "StatefulPartitionedCall/onnx_tf_prefix_/h.0/attn/Shape_1", "shape": [4], "dtype": "int32"}, {"name": "StatefulPartitionedCall/SelectV2_5", "shape": [1], "dtype": "int32"}, {"name": "StatefulPartitionedCall/zeros_4", "shape": [], "dtype": "int32"}, {"name": "StatefulPartitionedCall/Const_6", "shape": [], "dtype": "int32"}, {"name": "StatefulPartitionedCall/Shape_8", "shape": [1], "dtype": "int32"}, {"name": "StatefulPartitionedCall/ExpandDims_1", "shape": [1, 1], "dtype": "int32"}, {"name": "StatefulPartitionedCall/Cast_8", "shape": [1], "dtype": "int32"}, {"name": "StatefulPartitionedCall/SelectV2_6", "shape": [1], "dtype": "int32"}, {"name": "StatefulPartitionedCall/Const_5", "shape": [], "dtype": "int32"}, {"name": "StatefulPartitionedCall/ones_1", "shape": [1], "dtype": "int32"}, {"name": "StatefulPartitionedCall/onnx_tf_prefix_/h.0/attn/Shape_2", "shape": [4], "dtype": "int32"}, {"name": "StatefulPartitionedCall/SelectV2_9", "shape": [1], "dtype": "int32"}, {"name": "StatefulPartitionedCall/zeros_5", "shape": [], "dtype": "int32"}, {"name": "StatefulPartitionedCall/Const_8", "shape": [], "dtype": "int32"}, {"name": "StatefulPartitionedCall/Shape_10", "shape": [1], "dtype": "int32"}, {"name": "StatefulPartitionedCall/ExpandDims_2", "shape": [1, 1], "dtype": "int32"}, {"name": "StatefulPartitionedCall/Cast_10", "shape": [1], "dtype": "int32"}, {"name": "StatefulPartitionedCall/SelectV2_10", "shape": [1], "dtype": "int32"}, {"name": "StatefulPartitionedCall/Const_7", "shape": [], "dtype": "int32"}, {"name": "StatefulPartitionedCall/ones_2", "shape": [1], "dtype": "int32"}, {"name": "StatefulPartitionedCall/onnx_tf_prefix_/h.0/attn/Concat/axis", "shape": [], "dtype": "int32"}, {"name": "StatefulPartitionedCall/ones_3/Const", "shape": [], "dtype": "float32"}, {"name": "StatefulPartitionedCall/Const_9", "shape": [], "dtype": "int32"}, {"name": "StatefulPartitionedCall/Const_10", "shape": [], "dtype": "int32"}, {"name": "StatefulPartitionedCall/GreaterEqual_1", "shape": [], "dtype": "bool"}, {"name": "StatefulPartitionedCall/onnx_tf_prefix_/h.0/attn/Constant_12", "shape": [1], "dtype": "float32"}, {"name": "StatefulPartitionedCall/onnx_tf_prefix_/h.0/attn/Constant_11", "shape": [1], "dtype": "float32"}, {"name": "StatefulPartitionedCall/onnx_tf_prefix_/h.0/attn/Constant_10", "shape": [1], "dtype": "float32"}, {"name": "unknown_1", "shape": [384], "dtype": "float32"}, {"name": "unknown", "shape": [65, 384], "dtype": "float32"}, {"name": "unknown_0", "shape": [256, 384], "dtype": "float32"}, {"name": "StatefulPartitionedCall/onnx_tf_prefix_/h.0/ln_1/ReduceMean/reduction_indices", "shape": [], "dtype": "int32"}, {"name": "StatefulPartitionedCall/onnx_tf_prefix_/h.0/ln_1/ReduceMean_1/reduction_indices", "shape": [], "dtype": "int32"}, {"name": "StatefulPartitionedCall/onnx_tf_prefix_/h.0/ln_1/Constant_1", "shape": [], "dtype": "float32"}, {"name": "unknown_2", "shape": [384, 1152], "dtype": "float32"}, {"name": "StatefulPartitionedCall/onnx_tf_prefix_/h.0/attn/Constant", "shape": [3], "dtype": "int32"}, {"name": "StatefulPartitionedCall/onnx_tf_prefix_/h.0/attn/Split/split_dim", "shape": [], "dtype": "int32"}, {"name": "StatefulPartitionedCall/onnx_tf_prefix_/h.0/attn/Constant_3", "shape": [4], "dtype": "int32"}, {"name": "StatefulPartitionedCall/Where_2", "shape": [0, 1], "dtype": "int32"}, {"name": "StatefulPartitionedCall/Cast_4", "shape": [1], "dtype": "int32"}, {"name": "StatefulPartitionedCall/GatherV2_2", "shape": [0], "dtype": "int32"}, {"name": "StatefulPartitionedCall/zeros_2", "shape": [], "dtype": "int32"}, {"name": "StatefulPartitionedCall/onnx_tf_prefix_/h.0/attn/Transpose_2/perm", "shape": [4], "dtype": "int32"}, {"name": "StatefulPartitionedCall/onnx_tf_prefix_/h.0/attn/Transpose_4/perm", "shape": [4], "dtype": "int32"}, {"name": "StatefulPartitionedCall/onnx_tf_prefix_/h.0/attn/Constant_13", "shape": [3], "dtype": "int32"}, {"name": "StatefulPartitionedCall/Where_3", "shape": [0, 1], "dtype": "int32"}, {"name": "StatefulPartitionedCall/Cast_11", "shape": [1], "dtype": "int32"}, {"name": "StatefulPartitionedCall/GatherV2_3", "shape": [0], "dtype": "int32"}, {"name": "StatefulPartitionedCall/zeros_6", "shape": [], "dtype": "int32"}, {"name": "unknown_3", "shape": [384, 384], "dtype": "float32"}, {"name": "StatefulPartitionedCall/onnx_tf_prefix_/h.0/ln_2/ReduceMean/reduction_indices", "shape": [], "dtype": "int32"}, {"name": "StatefulPartitionedCall/onnx_tf_prefix_/h.0/ln_2/ReduceMean_1/reduction_indices", "shape": [], "dtype": "int32"}, {"name": "StatefulPartitionedCall/onnx_tf_prefix_/h.0/ln_2/Constant_1", "shape": [], "dtype": "float32"}, {"name": "unknown_5", "shape": [384, 1536], "dtype": "float32"}, {"name": "ConstantFolding/StatefulPartitionedCall/onnx_tf_prefix_/h.0/mlp/gelu/Div_recip", "shape": [], "dtype": "float32"}, {"name": "StatefulPartitionedCall/onnx_tf_prefix_/h.0/mlp/gelu/Constant_1", "shape": [], "dtype": "float32"}, {"name": "unknown_6", "shape": [1536, 384], "dtype": "float32"}, {"name": "StatefulPartitionedCall/onnx_tf_prefix_/h.1/ln_1/ReduceMean/reduction_indices", "shape": [], "dtype": "int32"}, {"name": "StatefulPartitionedCall/onnx_tf_prefix_/h.1/ln_1/ReduceMean_1/reduction_indices", "shape": [], "dtype": "int32"}, {"name": "StatefulPartitionedCall/onnx_tf_prefix_/h.1/ln_1/Constant_1", "shape": [], "dtype": "float32"}, {"name": "unknown_8", "shape": [384, 1152], "dtype": "float32"}, {"name": "StatefulPartitionedCall/onnx_tf_prefix_/h.1/attn/Constant", "shape": [3], "dtype": "int32"}, {"name": "StatefulPartitionedCall/onnx_tf_prefix_/h.1/attn/Split/split_dim", "shape": [], "dtype": "int32"}, {"name": "StatefulPartitionedCall/onnx_tf_prefix_/h.1/attn/Constant_3", "shape": [4], "dtype": "int32"}, {"name": "StatefulPartitionedCall/Where_6", "shape": [0, 1], "dtype": "int32"}, {"name": "StatefulPartitionedCall/Cast_14", "shape": [1], "dtype": "int32"}, {"name": "StatefulPartitionedCall/GatherV2_6", "shape": [0], "dtype": "int32"}, {"name": "StatefulPartitionedCall/zeros_9", "shape": [], "dtype": "int32"}, {"name": "StatefulPartitionedCall/onnx_tf_prefix_/h.1/attn/Transpose_2/perm", "shape": [4], "dtype": "int32"}, {"name": "StatefulPartitionedCall/onnx_tf_prefix_/h.1/attn/Transpose_4/perm", "shape": [4], "dtype": "int32"}, {"name": "StatefulPartitionedCall/onnx_tf_prefix_/h.1/attn/Constant_13", "shape": [3], "dtype": "int32"}, {"name": "StatefulPartitionedCall/Where_7", "shape": [0, 1], "dtype": "int32"}, {"name": "StatefulPartitionedCall/Cast_21", "shape": [1], "dtype": "int32"}, {"name": "StatefulPartitionedCall/GatherV2_7", "shape": [0], "dtype": "int32"}, {"name": "StatefulPartitionedCall/zeros_13", "shape": [], "dtype": "int32"}, {"name": "unknown_9", "shape": [384, 384], "dtype": "float32"}, {"name": "StatefulPartitionedCall/onnx_tf_prefix_/h.1/ln_2/ReduceMean/reduction_indices", "shape": [], "dtype": "int32"}, {"name": "StatefulPartitionedCall/onnx_tf_prefix_/h.1/ln_2/ReduceMean_1/reduction_indices", "shape": [], "dtype": "int32"}, {"name": "StatefulPartitionedCall/onnx_tf_prefix_/h.1/ln_2/Constant_1", "shape": [], "dtype": "float32"}, {"name": "unknown_11", "shape": [384, 1536], "dtype": "float32"}, {"name": "ConstantFolding/StatefulPartitionedCall/onnx_tf_prefix_/h.1/mlp/gelu/Div_recip", "shape": [], "dtype": "float32"}, {"name": "StatefulPartitionedCall/onnx_tf_prefix_/h.1/mlp/gelu/Constant_1", "shape": [], "dtype": "float32"}, {"name": "unknown_12", "shape": [1536, 384], "dtype": "float32"}, {"name": "StatefulPartitionedCall/onnx_tf_prefix_/h.2/ln_1/ReduceMean/reduction_indices", "shape": [], "dtype": "int32"}, {"name": "StatefulPartitionedCall/onnx_tf_prefix_/h.2/ln_1/ReduceMean_1/reduction_indices", "shape": [], "dtype": "int32"}, {"name": "StatefulPartitionedCall/onnx_tf_prefix_/h.2/ln_1/Constant_1", "shape": [], "dtype": "float32"}, {"name": "unknown_14", "shape": [384, 1152], "dtype": "float32"}, {"name": "StatefulPartitionedCall/onnx_tf_prefix_/h.2/attn/Constant", "shape": [3], "dtype": "int32"}, {"name": "StatefulPartitionedCall/onnx_tf_prefix_/h.2/attn/Split/split_dim", "shape": [], "dtype": "int32"}, {"name": "StatefulPartitionedCall/onnx_tf_prefix_/h.2/attn/Constant_3", "shape": [4], "dtype": "int32"}, {"name": "StatefulPartitionedCall/Where_10", "shape": [0, 1], "dtype": "int32"}, {"name": "StatefulPartitionedCall/Cast_24", "shape": [1], "dtype": "int32"}, {"name": "StatefulPartitionedCall/GatherV2_10", "shape": [0], "dtype": "int32"}, {"name": "StatefulPartitionedCall/zeros_16", "shape": [], "dtype": "int32"}, {"name": "StatefulPartitionedCall/onnx_tf_prefix_/h.2/attn/Transpose_2/perm", "shape": [4], "dtype": "int32"}, {"name": "StatefulPartitionedCall/onnx_tf_prefix_/h.2/attn/Transpose_4/perm", "shape": [4], "dtype": "int32"}, {"name": "StatefulPartitionedCall/onnx_tf_prefix_/h.2/attn/Constant_13", "shape": [3], "dtype": "int32"}, {"name": "StatefulPartitionedCall/Where_11", "shape": [0, 1], "dtype": "int32"}, {"name": "StatefulPartitionedCall/Cast_31", "shape": [1], "dtype": "int32"}, {"name": "StatefulPartitionedCall/GatherV2_11", "shape": [0], "dtype": "int32"}, {"name": "StatefulPartitionedCall/zeros_20", "shape": [], "dtype": "int32"}, {"name": "unknown_15", "shape": [384, 384], "dtype": "float32"}, {"name": "StatefulPartitionedCall/onnx_tf_prefix_/h.2/ln_2/ReduceMean/reduction_indices", "shape": [], "dtype": "int32"}, {"name": "StatefulPartitionedCall/onnx_tf_prefix_/h.2/ln_2/ReduceMean_1/reduction_indices", "shape": [], "dtype": "int32"}, {"name": "StatefulPartitionedCall/onnx_tf_prefix_/h.2/ln_2/Constant_1", "shape": [], "dtype": "float32"}, {"name": "unknown_17", "shape": [384, 1536], "dtype": "float32"}, {"name": "ConstantFolding/StatefulPartitionedCall/onnx_tf_prefix_/h.2/mlp/gelu/Div_recip", "shape": [], "dtype": "float32"}, {"name": "StatefulPartitionedCall/onnx_tf_prefix_/h.2/mlp/gelu/Constant_1", "shape": [], "dtype": "float32"}, {"name": "unknown_18", "shape": [1536, 384], "dtype": "float32"}, {"name": "StatefulPartitionedCall/onnx_tf_prefix_/h.3/ln_1/ReduceMean/reduction_indices", "shape": [], "dtype": "int32"}, {"name": "StatefulPartitionedCall/onnx_tf_prefix_/h.3/ln_1/ReduceMean_1/reduction_indices", "shape": [], "dtype": "int32"}, {"name": "StatefulPartitionedCall/onnx_tf_prefix_/h.3/ln_1/Constant_1", "shape": [], "dtype": "float32"}, {"name": "unknown_20", "shape": [384, 1152], "dtype": "float32"}, {"name": "StatefulPartitionedCall/onnx_tf_prefix_/h.3/attn/Constant", "shape": [3], "dtype": "int32"}, {"name": "StatefulPartitionedCall/onnx_tf_prefix_/h.3/attn/Split/split_dim", "shape": [], "dtype": "int32"}, {"name": "StatefulPartitionedCall/onnx_tf_prefix_/h.3/attn/Constant_3", "shape": [4], "dtype": "int32"}, {"name": "StatefulPartitionedCall/Where_14", "shape": [0, 1], "dtype": "int32"}, {"name": "StatefulPartitionedCall/Cast_34", "shape": [1], "dtype": "int32"}, {"name": "StatefulPartitionedCall/GatherV2_14", "shape": [0], "dtype": "int32"}, {"name": "StatefulPartitionedCall/zeros_23", "shape": [], "dtype": "int32"}, {"name": "StatefulPartitionedCall/onnx_tf_prefix_/h.3/attn/Transpose_2/perm", "shape": [4], "dtype": "int32"}, {"name": "StatefulPartitionedCall/onnx_tf_prefix_/h.3/attn/Transpose_4/perm", "shape": [4], "dtype": "int32"}, {"name": "StatefulPartitionedCall/onnx_tf_prefix_/h.3/attn/Constant_13", "shape": [3], "dtype": "int32"}, {"name": "StatefulPartitionedCall/Where_15", "shape": [0, 1], "dtype": "int32"}, {"name": "StatefulPartitionedCall/Cast_41", "shape": [1], "dtype": "int32"}, {"name": "StatefulPartitionedCall/GatherV2_15", "shape": [0], "dtype": "int32"}, {"name": "StatefulPartitionedCall/zeros_27", "shape": [], "dtype": "int32"}, {"name": "unknown_21", "shape": [384, 384], "dtype": "float32"}, {"name": "StatefulPartitionedCall/onnx_tf_prefix_/h.3/ln_2/ReduceMean/reduction_indices", "shape": [], "dtype": "int32"}, {"name": "StatefulPartitionedCall/onnx_tf_prefix_/h.3/ln_2/ReduceMean_1/reduction_indices", "shape": [], "dtype": "int32"}, {"name": "StatefulPartitionedCall/onnx_tf_prefix_/h.3/ln_2/Constant_1", "shape": [], "dtype": "float32"}, {"name": "unknown_23", "shape": [384, 1536], "dtype": "float32"}, {"name": "ConstantFolding/StatefulPartitionedCall/onnx_tf_prefix_/h.3/mlp/gelu/Div_recip", "shape": [], "dtype": "float32"}, {"name": "StatefulPartitionedCall/onnx_tf_prefix_/h.3/mlp/gelu/Constant_1", "shape": [], "dtype": "float32"}, {"name": "unknown_24", "shape": [1536, 384], "dtype": "float32"}, {"name": "StatefulPartitionedCall/onnx_tf_prefix_/h.4/ln_1/ReduceMean/reduction_indices", "shape": [], "dtype": "int32"}, {"name": "StatefulPartitionedCall/onnx_tf_prefix_/h.4/ln_1/ReduceMean_1/reduction_indices", "shape": [], "dtype": "int32"}, {"name": "StatefulPartitionedCall/onnx_tf_prefix_/h.4/ln_1/Constant_1", "shape": [], "dtype": "float32"}, {"name": "unknown_26", "shape": [384, 1152], "dtype": "float32"}, {"name": "StatefulPartitionedCall/onnx_tf_prefix_/h.4/attn/Constant", "shape": [3], "dtype": "int32"}, {"name": "StatefulPartitionedCall/onnx_tf_prefix_/h.4/attn/Split/split_dim", "shape": [], "dtype": "int32"}, {"name": "StatefulPartitionedCall/onnx_tf_prefix_/h.4/attn/Constant_3", "shape": [4], "dtype": "int32"}, {"name": "StatefulPartitionedCall/Where_18", "shape": [0, 1], "dtype": "int32"}, {"name": "StatefulPartitionedCall/Cast_44", "shape": [1], "dtype": "int32"}, {"name": "StatefulPartitionedCall/GatherV2_18", "shape": [0], "dtype": "int32"}, {"name": "StatefulPartitionedCall/zeros_30", "shape": [], "dtype": "int32"}, {"name": "StatefulPartitionedCall/onnx_tf_prefix_/h.4/attn/Transpose_2/perm", "shape": [4], "dtype": "int32"}, {"name": "StatefulPartitionedCall/onnx_tf_prefix_/h.4/attn/Transpose_4/perm", "shape": [4], "dtype": "int32"}, {"name": "StatefulPartitionedCall/onnx_tf_prefix_/h.4/attn/Constant_13", "shape": [3], "dtype": "int32"}, {"name": "StatefulPartitionedCall/Where_19", "shape": [0, 1], "dtype": "int32"}, {"name": "StatefulPartitionedCall/Cast_51", "shape": [1], "dtype": "int32"}, {"name": "StatefulPartitionedCall/GatherV2_19", "shape": [0], "dtype": "int32"}, {"name": "StatefulPartitionedCall/zeros_34", "shape": [], "dtype": "int32"}, {"name": "unknown_27", "shape": [384, 384], "dtype": "float32"}, {"name": "StatefulPartitionedCall/onnx_tf_prefix_/h.4/ln_2/ReduceMean/reduction_indices", "shape": [], "dtype": "int32"}, {"name": "StatefulPartitionedCall/onnx_tf_prefix_/h.4/ln_2/ReduceMean_1/reduction_indices", "shape": [], "dtype": "int32"}, {"name": "StatefulPartitionedCall/onnx_tf_prefix_/h.4/ln_2/Constant_1", "shape": [], "dtype": "float32"}, {"name": "unknown_29", "shape": [384, 1536], "dtype": "float32"}, {"name": "ConstantFolding/StatefulPartitionedCall/onnx_tf_prefix_/h.4/mlp/gelu/Div_recip", "shape": [], "dtype": "float32"}, {"name": "StatefulPartitionedCall/onnx_tf_prefix_/h.4/mlp/gelu/Constant_1", "shape": [], "dtype": "float32"}, {"name": "unknown_30", "shape": [1536, 384], "dtype": "float32"}, {"name": "StatefulPartitionedCall/onnx_tf_prefix_/h.5/ln_1/ReduceMean/reduction_indices", "shape": [], "dtype": "int32"}, {"name": "StatefulPartitionedCall/onnx_tf_prefix_/h.5/ln_1/ReduceMean_1/reduction_indices", "shape": [], "dtype": "int32"}, {"name": "StatefulPartitionedCall/onnx_tf_prefix_/h.5/ln_1/Constant_1", "shape": [], "dtype": "float32"}, {"name": "unknown_32", "shape": [384, 1152], "dtype": "float32"}, {"name": "StatefulPartitionedCall/onnx_tf_prefix_/h.5/attn/Constant", "shape": [3], "dtype": "int32"}, {"name": "StatefulPartitionedCall/onnx_tf_prefix_/h.5/attn/Split/split_dim", "shape": [], "dtype": "int32"}, {"name": "StatefulPartitionedCall/onnx_tf_prefix_/h.5/attn/Constant_3", "shape": [4], "dtype": "int32"}, {"name": "StatefulPartitionedCall/Where_22", "shape": [0, 1], "dtype": "int32"}, {"name": "StatefulPartitionedCall/Cast_54", "shape": [1], "dtype": "int32"}, {"name": "StatefulPartitionedCall/GatherV2_22", "shape": [0], "dtype": "int32"}, {"name": "StatefulPartitionedCall/zeros_37", "shape": [], "dtype": "int32"}, {"name": "StatefulPartitionedCall/onnx_tf_prefix_/h.5/attn/Transpose_2/perm", "shape": [4], "dtype": "int32"}, {"name": "StatefulPartitionedCall/onnx_tf_prefix_/h.5/attn/Transpose_4/perm", "shape": [4], "dtype": "int32"}, {"name": "StatefulPartitionedCall/onnx_tf_prefix_/h.5/attn/Constant_13", "shape": [3], "dtype": "int32"}, {"name": "StatefulPartitionedCall/Where_23", "shape": [0, 1], "dtype": "int32"}, {"name": "StatefulPartitionedCall/Cast_61", "shape": [1], "dtype": "int32"}, {"name": "StatefulPartitionedCall/GatherV2_23", "shape": [0], "dtype": "int32"}, {"name": "StatefulPartitionedCall/zeros_41", "shape": [], "dtype": "int32"}, {"name": "unknown_33", "shape": [384, 384], "dtype": "float32"}, {"name": "StatefulPartitionedCall/onnx_tf_prefix_/h.5/ln_2/ReduceMean/reduction_indices", "shape": [], "dtype": "int32"}, {"name": "StatefulPartitionedCall/onnx_tf_prefix_/h.5/ln_2/ReduceMean_1/reduction_indices", "shape": [], "dtype": "int32"}, {"name": "StatefulPartitionedCall/onnx_tf_prefix_/h.5/ln_2/Constant_1", "shape": [], "dtype": "float32"}, {"name": "unknown_35", "shape": [384, 1536], "dtype": "float32"}, {"name": "ConstantFolding/StatefulPartitionedCall/onnx_tf_prefix_/h.5/mlp/gelu/Div_recip", "shape": [], "dtype": "float32"}, {"name": "StatefulPartitionedCall/onnx_tf_prefix_/h.5/mlp/gelu/Constant_1", "shape": [], "dtype": "float32"}, {"name": "unknown_36", "shape": [1536, 384], "dtype": "float32"}, {"name": "StatefulPartitionedCall/onnx_tf_prefix_/ln_f/ReduceMean/reduction_indices", "shape": [], "dtype": "int32"}, {"name": "StatefulPartitionedCall/onnx_tf_prefix_/ln_f/ReduceMean_1/reduction_indices", "shape": [], "dtype": "int32"}, {"name": "StatefulPartitionedCall/onnx_tf_prefix_/ln_f/Constant_1", "shape": [], "dtype": "float32"}, {"name": "unknown_38", "shape": [384, 65], "dtype": "float32"}, {"name": "StatefulPartitionedCall/LogicalAnd_1", "shape": [1], "dtype": "bool"}, {"name": "StatefulPartitionedCall/assert_equal_3/y", "shape": [], "dtype": "bool"}, {"name": "StatefulPartitionedCall/assert_equal_3/All", "shape": [], "dtype": "bool"}, {"name": "StatefulPartitionedCall/Neg", "shape": [], "dtype": "int32"}, {"name": "StatefulPartitionedCall/strided_slice", "shape": [], "dtype": "int32"}, {"name": "StatefulPartitionedCall/assert_equal_1/y", "shape": [], "dtype": "bool"}, {"name": "StatefulPartitionedCall/assert_equal_1/Const", "shape": [2], "dtype": "int32"}, {"name": "StatefulPartitionedCall/cond_5/else/_109/cond_5/sub/x", "shape": [], "dtype": "int32"}, {"name": "StatefulPartitionedCall/cond_4/else/_98/cond_4/sub/x", "shape": [], "dtype": "int32"}, {"name": "StatefulPartitionedCall/cond_3/else/_87/cond_3/sub/x", "shape": [], "dtype": "int32"}, {"name": "StatefulPartitionedCall/cond_2/else/_76/cond_2/sub/x", "shape": [], "dtype": "int32"}, {"name": "StatefulPartitionedCall/cond_1/else/_65/cond_1/sub/x", "shape": [], "dtype": "int32"}, {"name": "StatefulPartitionedCall/cond/else/_54/cond/sub/x", "shape": [], "dtype": "int32"}, {"name": "StatefulPartitionedCall/assert_equal_1/Assert/AssertGuard/pivot_f/_46", "shape": [], "dtype": "bool"}, {"name": "StatefulPartitionedCall/assert_equal_1/Assert/AssertGuard/pivot_t/_47", "shape": [], "dtype": "bool"}, {"name": "Func/StatefulPartitionedCall/assert_equal_1/Assert/AssertGuard/then/_43/output/_133", "shape": [], "dtype": "bool"}, {"name": "Func/StatefulPartitionedCall/assert_equal_1/Assert/AssertGuard/else/_44/output/_139", "shape": [], "dtype": "bool"}, {"name": "StatefulPartitionedCall/assert_equal_3/Assert/AssertGuard/pivot_t/_123", "shape": [], "dtype": "bool"}, {"name": "StatefulPartitionedCall/Cast_1/x", "shape": [], "dtype": "int32"}, {"name": "StatefulPartitionedCall/onnx_tf_prefix_/wte/Gather/axis", "shape": [], "dtype": "int32"}, {"name": "Func/StatefulPartitionedCall/assert_equal_3/Assert/AssertGuard/then/_119/output/_229", "shape": [], "dtype": "bool"}, {"name": "StatefulPartitionedCall/FloorMod_1", "shape": [1], "dtype": "int32"}, {"name": "StatefulPartitionedCall/onnx_tf_prefix_/Gather/axis", "shape": [], "dtype": "int32"}]}]}